student_model.tflite (tflite, 788036 bytes, 6 tensors)

dense_2/bias f4 [4]
0	0xbed5eb65	-0.41781154
1	0x3f6a596a	0.91542685
2	0x3d6fa373	0.058505487
3	0xbe72407a	-0.23657408

dense_1/bias f4 [64]
0	0x3dfd69a0	0.12373662
1	0xbe85ded7	-0.26146576
2	0x3d8b251f	0.0679419
3	0xbec6c4af	-0.38821933
4	0xbe4eded8	-0.20202196
5	0xbf095551	-0.5364581
6	0xbe48ffdf	-0.19628857
7	0x3e8a5e15	0.27024904
8	0xbf55eaad	-0.8356121
9	0xbf1d53ab	-0.6145579
10	0xbf205287	-0.62625927
11	0xbedfb36b	-0.43691573
12	0xbdaedd80	-0.085383415
13	0xbf50b701	-0.8152924
14	0xbeca35aa	-0.39494067
15	0x3dba01ce	0.090823755
16	0xbd5dc47d	-0.054142464
17	0xbe51551d	-0.20442624
18	0xbf0694e5	-0.52570945
19	0x3ef3de44	0.47630513
20	0xbe950603	-0.2910615
21	0x3dfaa0ac	0.12237677
22	0x3dd49480	0.103798866
23	0x3ebf1f17	0.37328407
24	0xbe25eed6	-0.1620439
25	0x3eb7280b	0.35772738
26	0xbef3eed4	-0.4764315
27	0xbd8781d9	-0.06616563
28	0xbee84f35	-0.4537293
29	0xbe27f7db	-0.16403143
30	0xbe88c109	-0.26709774
31	0x3f417585	0.75569946
32	0x3f9c36e7	1.2204255
33	0xbd3d9bea	-0.04629127
34	0x3fcfa515	1.6222254
35	0x3d763535	0.060109336
36	0xbd853b2a	-0.06505425
37	0xbd7b3321	-0.061328057
38	0x3ff31ab5	1.8992525
39	0xbe831861	-0.25604537
40	0x3f01d182	0.5071031
41	0xbf555d86	-0.8334583
42	0xbf053236	-0.5202974
43	0x3dadba1c	0.08482763
44	0xbf6f7e5a	-0.9355217
45	0xbe844c2f	-0.25839373
46	0xbf0ed8f7	-0.5579981
47	0xbdb51859	-0.088425346
48	0xbe14584e	-0.1448681
49	0xbe40956b	-0.18806998
50	0x3f0279d3	0.5096714
51	0x3f07be5d	0.53024846
52	0xbe4dbd2d	-0.20091696
53	0xbdb80594	-0.08985439
54	0xbee1bb94	-0.44088423
55	0x401907b4	2.3910952
56	0xbf0e6833	-0.55627745
57	0xbefc0198	-0.49219966
58	0x3e75d8f5	0.24008544
59	0xbf3548b6	-0.70814073
60	0x3f9a228f	1.2041796
61	0xbc43148d	-0.011906755
62	0xbe05eddb	-0.13079016
63	0xbe6f1777	-0.23348795

dense/bias f4 [64]
0	0xbec16475	-0.37771955
1	0x3f56f66a	0.8396975
2	0x3f0d6191	0.55227
3	0xbeff1515	-0.49820772
4	0xbdc194f4	-0.09452239
5	0xbe208526	-0.15675792
6	0xbdd0f29d	-0.10202525
7	0xbe5dad24	-0.21648079
8	0xbe747e2b	-0.23876254
9	0xbe7a93b6	-0.2447041
10	0xbf15d7ee	-0.5853261
11	0x3f2046b6	0.62607896
12	0xbead1205	-0.3380281
13	0xbeeca566	-0.4621994
14	0xbe68524e	-0.22687647
15	0xbe3dbf04	-0.18529898
16	0xbe48fa1a	-0.19626656
17	0x3f001c26	0.5004295
18	0xbea29462	-0.31753832
19	0xbe3593ea	-0.17732206
20	0x3f2e300c	0.68042064
21	0xbe742fdb	-0.2384638
22	0xbd903ce0	-0.07042861
23	0xbedf7aa1	-0.43648246
24	0x3f08b937	0.53407615
25	0x3cc5d04a	0.024147172
26	0x3ee69dfc	0.45042408
27	0xbe88884f	-0.26666495
28	0xbf873b61	-1.0564996
29	0xbe70e769	-0.23525776
30	0x3e0afcea	0.13573042
31	0xbdb9446f	-0.09046256
32	0xbdcf5b91	-0.10124887
33	0xbf019629	-0.5061975
34	0xbed0e650	-0.40800714
35	0xbe4da177	-0.20081125
36	0xbe016baf	-0.12638734
37	0xbebd02b0	-0.36916113
38	0xbdd04583	-0.10169508
39	0xbe8df136	-0.27723092
40	0x3f63dd88	0.89009905
41	0x3d42d7b6	0.047569
42	0xbe4b2af6	-0.19840607
43	0xbeafdc6d	-0.3434786
44	0x3ee50f11	0.44738057
45	0x3eb9e7b5	0.3630959
46	0xbe8d6f38	-0.27623916
47	0x3f14f016	0.5817884
48	0xbed32648	-0.41240144
49	0xbed97b90	-0.42477083
50	0xbf0be6cb	-0.5464904
51	0xbea8dc03	-0.32980356
52	0x3e742be9	0.23844875
53	0x3f49ec5f	0.788763
54	0x3ecc1803	0.3986207
55	0x3e11b5e1	0.14229538
56	0x3ebddf44	0.370844
57	0xbf046b19	-0.5172592
58	0xbe94a959	-0.29035452
59	0xbe9d55d5	-0.30729547
60	0xbe289ce2	-0.16466096
61	0xbf0a8632	-0.54111016
62	0xbba0b85d	-0.0049047903
63	0x3dc77bf4	0.09740439

sequential/dense/MatMul f4 [64, 3000]
0	0xbd207325	-0.03917231
1	0x3c7736e0	0.015088767
2	0x3c8f6b7c	0.017507307
3	0xbc0aa88f	-0.008463039
4	0x3ce973cd	0.0284976
5	0xbd1a5238	-0.037676066
6	0x3d0bfb05	0.034174938
7	0xbd197e91	-0.03747422
8	0x3d0e61c7	0.034761216
9	0x3c814e84	0.01578451
10	0xbd312ec0	-0.043257475
11	0xbd2ef77d	-0.042716492
12	0x3d070421	0.032962922
13	0xbc8ecfa3	-0.017432993
14	0xbc598317	-0.013275883
15	0xbcf39d30	-0.029738039
16	0x3ca92e6f	0.020652024
17	0xbcb33a0f	-0.02187827
18	0x3c85e093	0.016342437
19	0x3d2dbe0b	0.042417567
20	0xbc96eb90	-0.018422872
21	0xbcf69a49	-0.030102866
22	0x3c335a01	0.010946752
23	0xbc92f2be	-0.017938014
24	0xbd2b1901	-0.041771892
25	0xbd75314d	-0.05986147
26	0xbd7969aa	-0.060891785
27	0xbce8316c	-0.028343879
28	0xbd9638fc	-0.07335088
29	0x3bd2ad2d	0.0064293356
30	0xba9dcc4f	-0.0012039038
31	0xbd0c78e3	-0.034294974
32	0xbc51b626	-0.012799775
33	0xbc23a435	-0.0099878805
34	0xbcdf405f	-0.027252374
35	0x3b865ce4	0.004100429
36	0xbb375c55	-0.0027978618
37	0xbb8b995a	-0.0042602243
38	0xbcb534c2	-0.022119883
39	0xbd2e154f	-0.04250079
40	0xbc957d29	-0.018248158
41	0xbcf4d980	-0.029888868
42	0xbc3baa69	-0.011454203
43	0xbbb5f0bc	-0.0055523794
44	0xbd0663cd	-0.03281002
45	0x3b57a4cc	0.0032904623
46	0x3d05799d	0.032586683
47	0xbd331068	-0.043716818
48	0x3cf4172e	0.02979621
49	0x3d36c754	0.044623688
50	0x3c4a62ff	0.012352704
51	0x3d179b96	0.037013613
52	0xbc373d80	-0.011184096
53	0x3cf354c9	0.029703515
54	0x3b403553	0.0029328659
55	0xbaf2b9fb	-0.0018518561
56	0xbb95677e	-0.0045594564
57	0x3d17de65	0.037077326
58	0x3bddb105	0.006765487
59	0x3cf6c511	0.030123265
60	0x3ceb11e2	0.02869505
61	0x3ce89542	0.028391484
62	0x3d2f30a5	0.042771
63	0x3cbcd8e6	0.023052644
64	0x3d20e2ea	0.039278902
65	0xba59b08c	-0.00083042006
66	0xbcff5f23	-0.031173294
67	0x3c6d9a2b	0.014502089
68	0x3c55364e	0.0130134355
69	0xbc46fc46	-0.012145108
70	0x3cd37a48	0.025815144
71	0xbc3f8e63	-0.0116916625
72	0x3c4eab3a	0.012614066
73	0x3c3c0f3d	0.011478242
74	0xbc45580f	-0.012044921
75	0xbcfadd70	-0.030623168
76	0xbcb64414	-0.022249259
77	0xbc723e8e	-0.014785422
78	0x3c99cf46	0.018775593
79	0xbc3f4d6b	-0.011676173
80	0x3ced6f54	0.02898375
81	0x3cbdfb0a	0.023190994
82	0xbced8c2f	-0.028997509
83	0xbd07c25f	-0.03314435
84	0x3d00065b	0.03125606
85	0xbcffb13a	-0.031212438
86	0x3c856366	0.016282748
87	0xbb37fee8	-0.002807552
88	0xbcd80c8d	-0.026373172
89	0x3c1e3758	0.00965675
90	0x3b528b44	0.0032126466
91	0x3d386ec8	0.045027524
92	0x3cb082a3	0.021546667
93	0xba76f41d	-0.0009420531
94	0xbd1b6aea	-0.037943758
95	0xbcd3da27	-0.02586086
96	0x3c3f7f85	0.011688118
97	0xbbf6ab64	-0.0075277556
98	0xbb2f4c55	-0.0026748378
99	0xbd221cc4	-0.039578214
100	0xbca2f0a0	-0.01989013
101	0xbc88426d	-0.016633237
102	0x3c3263be	0.010888038
103	0x3c319a8a	0.010840068
104	0xbbc4365a	-0.0059879245
105	0x3c2a2bdd	0.010386434
106	0x3c834ba5	0.016027281
107	0xbb798813	-0.0038075491
108	0xbb030215	-0.0019990255
109	0xbd19312a	-0.037400402
110	0xbc9008e4	-0.017582364
111	0x3d14ebeb	0.0363578
112	0xbd783f1c	-0.06060706
113	0x3cf27634	0.02959738
114	0x3c19196e	0.009344442
115	0x3cc31d78	0.023817763
116	0xbd36fef9	-0.044676755
117	0x3d14eb7d	0.03635739
118	0xbd23ab81	-0.03995848
119	0xbc47f32e	-0.012203975
120	0xbd399544	-0.045308366
121	0xbcb7d604	-0.022440918
122	0xbd5dc6b0	-0.05414456
123	0xbbed2351	-0.007236876
124	0xbd242da7	-0.0400826
125	0xbcb3ec09	-0.021963136
126	0x3c129604	0.008946899
127	0x3ca90d29	0.020636158
128	0xbc3d046c	-0.011536699
129	0xbcc1c564	-0.023653693
130	0xbc9d49e4	-0.019200273
131	0x3cc372c5	0.023858437
132	0x3cc6706c	0.024223529
133	0x3c0969a9	0.008387008
134	0x3c8ba852	0.017048035
135	0x3cb0e54e	0.021593716
136	0xbc5eaad5	-0.013590534
137	0xbce131b9	-0.02748953
138	0x3c1e53b4	0.009663511
139	0x3c045f72	0.008079397
140	0xbd006df3	-0.031354856
141	0xbd6f5790	-0.058433115
142	0xbd7cda7b	-0.061731797
143	0x3bcd729c	0.006269766
144	0xbd496029	-0.04916397
145	0x3c710b62	0.0147121865
146	0xbc8c5254	-0.0171291
147	0xbd0614b1	-0.032734577
148	0x39b59cf7	0.00034639958
149	0x3c9b7f79	0.018981682
150	0x3cce3696	0.025172513
151	0xbc48b6a1	-0.012250573
152	0xbc9dd5f3	-0.019267058
153	0xbc6e8147	-0.014557189
154	0x3cbe3a3d	0.02322113
155	0xbbd6c0f8	-0.0065537654
156	0xbd18e50e	-0.03732782
157	0xbd6f5add	-0.058436263
158	0xbd0868df	-0.033303138
159	0xbcd8cd03	-0.026464945
160	0xbc6db97f	-0.014509558
161	0xbce5d090	-0.028053552
162	0xbcca5620	-0.02469927
163	0xbc70c954	-0.014696438
164	0xbcb87c35	-0.022520164
165	0x3d31187d	0.043236244
166	0x3be77542	0.007063539
167	0xbd354b9e	-0.044261567
168	0xbc8ad1f1	-0.016945811
169	0x3c4b1742	0.012395682
170	0xba699ce2	-0.0008911622
171	0xbcfce0de	-0.030868944
172	0x3ab33323	0.0013671856
173	0xbd32a4ec	-0.043614313
174	0xbd3f8f1e	-0.046767347
175	0xbc23ee55	-0.010005553
176	0xbd4e4f2b	-0.05036847
177	0xbd8bb0dc	-0.068208426
178	0xbda72e58	-0.08163136
179	0xbd8c6019	-0.06854267
180	0xbca3f0c7	-0.020012273
181	0xbd9d035d	-0.07666657
182	0xbdba0347	-0.09082656
183	0xbd6f9af0	-0.05849737
184	0xbd8073a1	-0.062720545
185	0xbd70f6ed	-0.058829237
186	0xbd5a3ede	-0.05328261
187	0xbd77d41a	-0.06050501
188	0xbd368669	-0.044561777
189	0xbc86790e	-0.016415145
190	0xbcd3e8b1	-0.025867792
191	0xbc30be39	-0.01078754
192	0xbd45ed19	-0.048321817
193	0x3c483990	0.012220755
194	0xbc58f244	-0.013241354
195	0xbca0ae9a	-0.019614507
196	0x3d1b9934	0.037987903
197	0x3c866e4e	0.01641002
198	0x3c9d64b7	0.019213064
199	0xbc1dcdc1	-0.009631575
200	0x3d230195	0.03979643
201	0x3ca0a13e	0.019608136
202	0xbc23f732	-0.010007666
203	0xbc2bb763	-0.0104807345
204	0x3d2f13c5	0.042743463
205	0xbcfa3afb	-0.030545702
206	0xbcafca81	-0.021458866
207	0xbd24d6a5	-0.040243763
208	0xbb32bc44	-0.002727286
209	0xbd10ccae	-0.035351448
210	0x3d225e71	0.039640848
211	0xbce662c0	-0.02812326
212	0xbcbd6008	-0.02311708
213	0xbc7fa3cd	-0.015603018
214	0xbd189119	-0.03724775
215	0xbb9cb6c8	-0.0047825314
216	0x3ca2c56f	0.019869534
217	0xbcdf6530	-0.02726993
218	0xbcb1ccb0	-0.021704048
219	0x3c16bc75	0.009200205
220	0xbc8fa83e	-0.017536279
221	0x3c7af1dd	0.015316454
222	0x3d24e6c8	0.040259153
223	0xbd324faa	-0.043533005
224	0x3c8f386d	0.01748296
225	0x3cdb3db8	0.026762828
226	0x3c5e06d4	0.013551433
227	0xbd241ad0	-0.040064633
228	0xbc5b73ac	-0.013394278
229	0x3bc52110	0.0060159042
230	0x3bbbb23f	0.0057280357
231	0xbd0c9cda	-0.034329273
232	0x3c595018	0.013263725
233	0xbbf3121e	-0.007417931
234	0xbd1f61fd	-0.03891181
235	0xbd0bd123	-0.034134995
236	0xbda344c1	-0.07972098
237	0xbd232f16	-0.039839827
238	0xbc245d76	-0.010032048
239	0xbb59b783	-0.0033220954
240	0xbd94346f	-0.072365634
241	0xbd18046e	-0.0371136
242	0x3c5d6e9d	0.013515142
243	0xbd8c6b45	-0.068563975
244	0xbd506263	-0.05087508
245	0xbd10dd6b	-0.03536741
246	0xbd203fdc	-0.0391234
247	0x3c2c0b26	0.010500705
248	0x3c0586ec	0.008149844
249	0xbd3812d1	-0.04493982
250	0xbc26b519	-0.010175013
251	0xbcfc9710	-0.030833751
252	0xbd830700	-0.063978195
253	0x3c92f1ed	0.017937625
254	0xbd33d9dd	-0.043908942
255	0x3d0ac6db	0.03388105

sequential/dense_1/MatMul f4 [64, 64]
0	0xbb1a788a	-0.0023570382
1	0x3d034250	0.032045662
2	0x3d9f81af	0.07788407
3	0xbdc65082	-0.096833244
4	0xbe290114	-0.16504318
5	0xbd5f6556	-0.05454
6	0x3ddeafb0	0.108733535
7	0xbdc222ef	-0.09479319
8	0xbe0ad744	-0.1355868
9	0xbe051272	-0.12995318
10	0xbdda7e17	-0.10668581
11	0xbe6ad87f	-0.22934149
12	0x3db16d07	0.086633734
13	0xbe2a2f59	-0.16619624
14	0x3c428f9d	0.01187506
15	0x3dd72bd0	0.105064034
16	0x3d45e8b8	0.04831764
17	0xbd0d161b	-0.03444491
18	0xbe2922ea	-0.16517225
19	0x3dd6b544	0.104837924
20	0xbe0c2eaa	-0.13689676
21	0xbe4000ed	-0.18750353
22	0xbe27371d	-0.16329618
23	0xbe130186	-0.1435605
24	0x3bf2d409	0.0074105305
25	0x3d5e4861	0.054268245
26	0x3d8c6ebb	0.06857058
27	0xbdce04d4	-0.10059515
28	0x3dd4e4f7	0.10395234
29	0xbe500487	-0.20314227
30	0xbd79f27e	-0.061022274
31	0xbdb73f69	-0.089476414
32	0x3d611189	0.054948363
33	0xbd319ad0	-0.04336053
34	0xbd8d9fec	-0.06915268
35	0xbe2d3986	-0.16916475
36	0xbe7951f6	-0.24347672
37	0x3d8da4cb	0.069161974
38	0xbcadc9a3	-0.021214312
39	0xbb9faff0	-0.0048732683
40	0xbd420910	-0.047371924
41	0xbde55ddc	-0.11199543
42	0xbe3bcd68	-0.18340075
43	0x3ddccef6	0.10781662
44	0xbe3866cc	-0.18007964
45	0xbdc11482	-0.0942774
46	0xbda91c87	-0.08257394
47	0xbd8c4e2b	-0.06850847
48	0xbe275a77	-0.16343103
49	0x3d39ea84	0.045389667
50	0x3a5c2e28	0.0008399212
51	0xbd8f9508	-0.07010847
52	0xba32c87c	-0.00068200356
53	0xbe6c8586	-0.2309781
54	0xbe533404	-0.20625311
55	0xbe230f42	-0.15923789
56	0x3c8e108d	0.017341876
57	0xbe2a84a9	-0.16652168
58	0x3dd9d73b	0.10636755
59	0xbe22af2f	-0.1588714
60	0xbdb199eb	-0.08671936
61	0x3de5a364	0.11212805
62	0x3c6f0e8a	0.014590869
63	0xbd72d467	-0.059284594
64	0xbe38b40b	-0.18037431
65	0xbe57bbef	-0.21067785
66	0xbe73b03b	-0.23797695
67	0xbd27241c	-0.04080592
68	0xbde9e12d	-0.11419902
69	0x3c9f09b9	0.019413816
70	0xbda96ba6	-0.082724854
71	0xbe25d587	-0.16194735
72	0xbdfcf0bf	-0.12350606
73	0x3e197517	0.14986072
74	0xbe8cbc3c	-0.2748736
75	0xbe2eddee	-0.17076847
76	0xbe80c698	-0.25151515
77	0xbd27a95f	-0.04093301
78	0xbda37fcc	-0.0798336
79	0xbe037cc8	-0.12840569
80	0xbe42b52c	-0.19014424
81	0xbe139e20	-0.14415789
82	0xbdb7c8e3	-0.08973863
83	0x3d8671e2	0.0656469
84	0xbcc3c505	-0.023897657
85	0xbe666cad	-0.22502394
86	0xbe066508	-0.13124478
87	0x3d992ac9	0.07478864
88	0x3d2f8768	0.042853743
89	0x3d502a7f	0.050821777
90	0xbda80822	-0.08204676
91	0xbe6682bf	-0.22510813
92	0xbd74be47	-0.059751775
93	0xbde338a5	-0.110947885
94	0xbe499278	-0.1968478
95	0x3b6a9779	0.003579585
96	0x3dec5262	0.11539151
97	0x3df2c942	0.11854793
98	0xb8d31396	-0.00010064912
99	0xbe64a26d	-0.22327586
100	0x3d77dfdf	0.060516234
101	0xbd992d4b	-0.07479342
102	0xbe274717	-0.16335712
103	0x3c72d41c	0.014821079
104	0xbe807a09	-0.25093105
105	0xbe278a18	-0.16361272
106	0x3dab613a	0.08368154
107	0xbe657dd8	-0.22411287
108	0xbdb10644	-0.08643773
109	0x3cf26e3b	0.029593578
110	0x3e0480d7	0.12939773
111	0xbe7934b5	-0.24336512
112	0x3d83029b	0.06396981
113	0xbda3618c	-0.0797759
114	0x3dbe30ab	0.092866264
115	0x3d8d0db9	0.06887383
116	0x3dac32f6	0.084081575
117	0x3d8fd3a8	0.07022792
118	0x3b469ed5	0.0030307074
119	0x3c50c530	0.012742326
120	0xbe0d24fc	-0.1378364
121	0x3d251ff1	0.040313665
122	0xbd3947bb	-0.045234423
123	0xbcec9b1e	-0.02888256
124	0xbe2cbea9	-0.16869606
125	0xbca43cd0	-0.020048529
126	0x3d0a8e93	0.033827376
127	0xbe1db466	-0.15400848
128	0x3d574b80	0.052562237
129	0xbd862569	-0.06550104
130	0xbe1a8ed2	-0.15093544
131	0xbd91e080	-0.07122898
132	0xbcf985ea	-0.030459363
133	0x3d901d7e	0.07036875
134	0x3cb24452	0.021761093
135	0xbd57c920	-0.052682042
136	0x3c3a9aec	0.011389475
137	0xbe789fc5	-0.24279697
138	0xbe6fe575	-0.23427375
139	0x3d87e739	0.06635899
140	0x3dc6bba0	0.097037554
141	0x3d98f6e3	0.07468965
142	0x3de7ba62	0.113148466
143	0x3c3b85ec	0.011445504
144	0xbe558317	-0.20850788
145	0x3d18a786	0.037269138
146	0xbe5f619b	-0.21814577
147	0xbdac0226	-0.08398847
148	0xbc64d138	-0.013965897
149	0x3da930b6	0.08261244
150	0xbe6e7f26	-0.23290691
151	0x3da0156d	0.07816587
152	0x3cc989af	0.024601785
153	0xbdb9c418	-0.09070605
154	0x3d4597fd	0.04824065
155	0x3d8062b4	0.06268826
156	0xbe092ee7	-0.13396798
157	0xbb6dada8	-0.0036266837
158	0xbdfc2471	-0.12311638
159	0xbe2c7226	-0.16840419
160	0x3d2e3124	0.042527333
161	0xbd837768	-0.06419259
162	0x3d870951	0.06593574
163	0xbe66c8df	-0.22537564
164	0xbe6563a7	-0.22401296
165	0x3e07f711	0.13277842
166	0xbe0f7e63	-0.14013056
167	0xbc7fb4e8	-0.015607096
168	0xbe500476	-0.20314202
169	0x3cea7d41	0.028624179
170	0x3d939f0f	0.072080724
171	0xbce6dde0	-0.02818197
172	0xbdca27a3	-0.09870841
173	0xbe1d98e7	-0.15390359
174	0xbd8db0a1	-0.06918455
175	0xbe59e7e7	-0.2127987
176	0x3d5adeb2	0.053435035
177	0xbd43588f	-0.047691878
178	0xbdc62fb3	-0.09677067
179	0xbe1ef695	-0.15523751
180	0xbd09fbe5	-0.03368749
181	0xbe608f56	-0.21929678
182	0xbe15e56a	-0.14638296
183	0x3cbf1c66	0.023328971
184	0xbdde1345	-0.10843519
185	0x3e1d4df0	0.15361762
186	0x3dee31ea	0.11630614
187	0xbe460dab	-0.19341151
188	0x3d31e689	0.043432746
189	0x3d80465e	0.062634215
190	0xbcae60a9	-0.021286326
191	0x3c96fa45	0.018429885
192	0x3dba77df	0.09104895
193	0x3dfce387	0.12348085
194	0x3da6f034	0.08151284
195	0xbe737af0	-0.23777366
196	0xbdb404c6	-0.08789973
197	0xbad59e9c	-0.001629788
198	0xbbd5cb33	-0.0065244674
199	0xbdf8bfc0	-0.121459484
200	0xbe20c9ca	-0.15701976
201	0xbd0a3977	-0.03374621
202	0x3db3a845	0.08772329
203	0xbe0fadb5	-0.14031108
204	0x3ba987e4	0.00517367
205	0xbd70de70	-0.058805883
206	0xbd41b955	-0.047295887
207	0x3dbfe646	0.09370093
208	0xbbf945c2	-0.0076071927
209	0x3ceb45ea	0.028719861
210	0xbe5e5f8d	-0.21716137
211	0xbe9a9ea1	-0.3019915
212	0xbe8e46c3	-0.27788362
213	0xbc380f33	-0.0112340925
214	0xbdca8d45	-0.09890226
215	0xbe2f9ff0	-0.17150855
216	0xbe7b14bd	-0.2451963
217	0xbe09449b	-0.13405077
218	0xbe80dad0	-0.2516694
219	0xbe83d9a0	-0.25751972
220	0xbde512ae	-0.111852035
221	0xbbd16b1c	-0.0063909423
222	0x3cc0c168	0.023529723
223	0xbd4a0486	-0.04932072
224	0xbe02ea05	-0.12784584
225	0xbe16b1f6	-0.14716324
226	0xbd08142b	-0.03322236
227	0x3dd8112d	0.10550151
228	0xbd9e168d	-0.07719145
229	0x3d764a20	0.060129285
230	0xbe4ff0e8	-0.20306742
231	0xbde30650	-0.110851884
232	0x3d5eb431	0.054371063
233	0x3e10ba8b	0.1413366
234	0xbe6e9ad0	-0.23301244
235	0xbd0d9626	-0.03456702
236	0xbce9e2b1	-0.028550478
237	0xbd8c320b	-0.068454824
238	0xbe582c75	-0.21110709
239	0xbe80c06e	-0.25146812
240	0xbe862c8e	-0.26205868
241	0xbd848ac9	-0.06471784
242	0xbe625af9	-0.22105016
243	0x3cee5b93	0.0290964
244	0xbe5f26cd	-0.21792145
245	0xbe6b0946	-0.22952756
246	0xbe13fcc3	-0.1445189
247	0xbdc8a5d9	-0.09797258
248	0x3d89b62c	0.067242
249	0xbd9c650f	-0.07636463
250	0x3d020bfc	0.03174971
251	0xbe099c31	-0.13438489
252	0xbd0d0229	-0.03442589
253	0xbe6628e3	-0.22476535
254	0xbdf2cd06	-0.11855511
255	0xbb00a964	-0.0019632215

sequential/dense_2/MatMul f4 [4, 64]
0	0xbdb81890	-0.0898906
1	0xbd3acba8	-0.045604378
2	0x3d67a2cd	0.056551743
3	0xbb390e87	-0.0028237419
4	0xbcaea860	-0.021320522
5	0x3dca81bc	0.09888026
6	0xbdd4024b	-0.10352
7	0xbd3801a8	-0.044923455
8	0x3e1f9ba2	0.15586713
9	0x3df8d654	0.12150255
10	0xbd69ef78	-0.05711314
11	0x3e29c863	0.16580348
12	0x3de0d3df	0.10977911
13	0x3ccaab61	0.024739923
14	0xbdff7799	-0.12473983
15	0xbe422571	-0.18959595
16	0xbe5471fb	-0.20746605
17	0xbdd39c22	-0.10332514
18	0x3dd36dfc	0.10323712
19	0xbe19740c	-0.14985675
20	0x3e8a5d03	0.27024087
21	0xbe032b34	-0.1280945
22	0xbdaeb912	-0.08531393
23	0x3e07f930	0.13278651
24	0xbdc25c49	-0.09490258
25	0x3d8d3acc	0.0689598
26	0x3e020242	0.12696174
27	0xbe4a9ad7	-0.19785629
28	0x3a989080	0.0011639744
29	0x3e09d7a2	0.13461164
30	0x3e893896	0.26800984
31	0xbd7f1a2c	-0.06228082
32	0x3d868aa1	0.0656941
33	0xbcee9d1d	-0.029127652
34	0x3d34be70	0.044126928
35	0xbe19c1c6	-0.15015325
36	0xbd3eb92e	-0.04656332
37	0xbd60d340	-0.054888964
38	0x3de6310b	0.11239823
39	0x3e11b4dc	0.14229149
40	0xbdd9b1e7	-0.10629635
41	0xbca72061	-0.020401182
42	0x3e2fd999	0.1717285
43	0x3e2cf2e5	0.16889532
44	0x3e20886d	0.15677042
45	0x3d4fe203	0.05075265
46	0x3e0b863d	0.13625427
47	0xbe174a5a	-0.14774457
48	0xbd9d4b5c	-0.07680389
49	0xbcf94e64	-0.030432887
50	0xbe08a5a9	-0.13344444
51	0x3cce9a7c	0.025220148
52	0xbb423c56	-0.0029638014
53	0xbdbd2d82	-0.092371956
54	0x3e18a62f	0.14907144
55	0xbe1e8c49	-0.15483202
56	0x3cf1e948	0.029530182
57	0x3d8ca947	0.068682246
58	0xbe69c283	-0.22828107
59	0xbd8b34ac	-0.06797156
60	0xbc835760	-0.016032875
61	0xbe37d29c	-0.17951435
62	0xbda2268c	-0.079175085
63	0x3dcdacde	0.100427374
64	0x3df92165	0.121645726
65	0xbe437845	-0.19088848
66	0x3dbba1a5	0.091616906
67	0xbdd8a099	-0.105775066
68	0x3dcea232	0.1008953
69	0xbc57a896	-0.013162753
70	0xbd9d8f49	-0.07693345
71	0xbd1e2aff	-0.038615223
72	0x3e18d641	0.14925481
73	0x3dec6b55	0.115439095
74	0xbdde7302	-0.1086178
75	0xbcbadde7	-0.02281089
76	0x3dc6c2fb	0.09705158
77	0x3c70f34e	0.014706446
78	0xbe227c63	-0.15867762
79	0xbe49769c	-0.19674152
80	0xbe2ff5ae	-0.17183563
81	0xbdcf5631	-0.101238616
82	0x3dff8e55	0.124783196
83	0xbe146a7b	-0.14493744
84	0x3dda7616	0.10667054
85	0x3d91f75c	0.07127258
86	0xbd9d42a5	-0.07678727
87	0x3e072d9a	0.1320099
88	0xbe377de6	-0.1791912
89	0x3d988d51	0.07448829
90	0x3d27b4c2	0.04094387
91	0xbe377b73	-0.17918186
92	0xbbc6404f	-0.0060501467
93	0x3e5c356e	0.21504757
94	0x3e713968	0.23557055
95	0x3cbcaf1c	0.023032717
96	0x3d67d2af	0.056597408
97	0xbd4b521e	-0.04963886
98	0x3e534f15	0.20635636
99	0x3d1f6324	0.038912907
100	0xbc65825d	-0.014008132
101	0x3addd252	0.0016923642
102	0x3de1e70e	0.11030398
103	0x3e040be1	0.12895156
104	0xbdd5672f	-0.10420071
105	0xbcd0278c	-0.025409482
106	0x3e40a92c	0.18814534
107	0x3e3119fe	0.17295071
108	0xbc928517	-0.017885728
109	0x3d15593f	0.036462065
110	0x3dd1b68a	0.10239895
111	0xbe1b3775	-0.15157874
112	0xbc40d6b3	-0.011769938
113	0xbe67852f	-0.226094
114	0xbded2c9f	-0.115807764
115	0x3d345068	0.044021994
116	0xbd67ab37	-0.056559768
117	0xbd8ba64a	-0.068188265
118	0xbe084c6e	-0.13310406
119	0xbe244f4a	-0.16045871
120	0x3d016eb0	0.0315997
121	0xbdd50b3c	-0.104025334
122	0xbe5d7a22	-0.21628621
123	0xbd9d8ef2	-0.0769328
124	0xbc444fbd	-0.011981902
125	0xbe36749d	-0.17817922
126	0xbdbbb4c9	-0.091653414
127	0xbd6c383c	-0.057670817
128	0xbcdb3fb1	-0.026763769
129	0x3cb5626b	0.022141656
130	0xbca4069b	-0.020022681
131	0xbd9092a6	-0.07059221
132	0x3e15f65b	0.14644758
133	0x3d52c32d	0.051455665
134	0x3e2d7ccb	0.16942136
135	0xbd3b9675	-0.045797784
136	0x3e21b3e0	0.15791273
137	0x3df2f36b	0.118628345
138	0xbd912227	-0.07086592
139	0x3dee62c7	0.11639934
140	0x3dc04258	0.09387654
141	0x3c8ef6f0	0.017451733
142	0xbe2e5e1a	-0.17028084
143	0xbe4c7f6b	-0.19970481
144	0xbe6a7cca	-0.22899166
145	0xbdd1e90e	-0.1024953
146	0x3dfbcb34	0.12294617
147	0xbe1530d1	-0.14569403
148	0x3e757ec9	0.23974146
149	0xbd7402bb	-0.059572916
150	0xbdb41055	-0.087921776
151	0x3e0b3447	0.13594161
152	0xbdae507c	-0.08511445
153	0x3d8a762b	0.0676082
154	0x3dfeccbe	0.12441395
155	0xbe36ab2d	-0.17838736
156	0xbacc7550	-0.0015598927
157	0xbd71625e	-0.0589317
158	0x3e82fa1c	0.25581443
159	0xbd594235	-0.053041656
160	0x3d821a2e	0.0635265
161	0xbcdcbf9b	-0.026946833
162	0x3d9ae570	0.07563293
163	0x3d401aeb	0.04690067
164	0xbd3d4b82	-0.046214588
165	0xbe0e0d44	-0.13872248
166	0x3db1a4ac	0.08673987
167	0x3da2e19e	0.07953189
168	0xbdd9ab7b	-0.106284104
169	0xbc6e8458	-0.01455792
170	0x3da8859c	0.08228609
171	0x3e2d1c3d	0.16905303
172	0x3e04f320	0.1298337
173	0x3d245048	0.040115625
174	0x3e0698e9	0.13144268
175	0xbe1ec39b	-0.15504305
176	0x3e1a7037	0.15081869
177	0x3d464445	0.04840495
178	0xbe01e8a5	-0.12686403
179	0x3d020caf	0.031750377
180	0xbb0e3415	-0.0021698524
181	0xbe15d514	-0.14632064
182	0x3e0256c9	0.12728418
183	0xbe41db80	-0.18931389
184	0x3cc5d61f	0.024149952
185	0x3d709821	0.05873883
186	0xbe5c0cc2	-0.21489242
187	0xbd9214b8	-0.07132858
188	0x3ab2a309	0.001362891
189	0xbe5624a2	-0.20912412
190	0x3c2ad5f8	0.010426991
191	0x3e32f180	0.17474937
192	0x3e0627cb	0.13101117
193	0xbd0d0ab9	-0.034434054
194	0x3cfd8aa4	0.030949898
195	0x3bee2784	0.007267894
196	0xbdf29711	-0.1184522
197	0x3d8818c5	0.066453494
198	0x3e429b61	0.19004585
199	0xbcbeb1a5	-0.023278067
200	0x3e15bb29	0.14622177
201	0x3ddc5c3e	0.10759781
202	0xbddeeee9	-0.10885412
203	0x3d7fa5fc	0.062414154
204	0x3dd3a6ff	0.10334586
205	0x3c2aa97e	0.010416387
206	0xbe0f64c8	-0.14003289
207	0xbe52b9cd	-0.2057869
208	0xbdbf1af7	-0.09331315
209	0xbd462c39	-0.048382018
210	0xbd8c7770	-0.068587184
211	0xbe1e9adb	-0.1548876
212	0xbe1c44c2	-0.15260604
213	0x3d9d737c	0.076880425
214	0xbdb54611	-0.08851255
215	0x3dfd9b16	0.12383096
216	0xbe08c46f	-0.13356183
217	0x3d8ea35d	0.06964753
218	0x3d88bcf0	0.06676662
219	0xbb848fea	-0.004045476
220	0xbbede9d0	-0.0072605386
221	0x3db3729f	0.087620966
222	0x3e6acbbc	0.22929281
223	0x3c0555e2	0.008138152
224	0x3d683a94	0.05669649
225	0x3d229ebc	0.039702162
226	0xbe73cd3a	-0.23808756
227	0x3cc71c18	0.024305388
228	0xbd74ca91	-0.059763495
229	0xbddd28c3	-0.1079879
230	0x3d8f6418	0.07001513
231	0x3dfe0bcd	0.124045946
232	0xbdea7968	-0.11448938
233	0xbd17f7b7	-0.037101474
234	0xbd9838db	-0.07432719
235	0x3e2b8d0e	0.16753027
236	0x3adc1932	0.0016792177
237	0x3d2e833e	0.04260563
238	0xbd2d4d41	-0.042310003
239	0xbe28ee98	-0.16497266
240	0x3d8c0ae3	0.06838014
241	0x3cf9c7c4	0.030490763
242	0xbe032306	-0.12806329
243	0x3d12f0fa	0.035874344
244	0xbb981154	-0.0046407375
245	0xbe0df1f6	-0.13861832
246	0x3d95de21	0.07317758
247	0xbe651f08	-0.22375119
248	0xbe0055ec	-0.12532777
249	0x3e00aeef	0.12566732
250	0xbe6dfdda	-0.23241368
251	0xbdad412a	-0.08459695
252	0xbe1f7bde	-0.15574595
253	0xbe17d30f	-0.14826606
254	0xbdf1d118	-0.118074596
255	0x3e405b2f	0.18784784
