student_model.tflite (tflite, 788036 bytes, 6 tensors)

dense_2/bias f4 [4]
-0.6219556 0.62999064 0.059111588 0.08347338
00000000: 7b38 1fbf 1147 213f fe1e 723d 17f4 aa3d

dense_1/bias f4 [64]
0.1425099 -0.23471065 0.29638863 -0.19521625 -0.14284354 -0.2634936 -0.13229583 0.43942705
-0.438197 -0.3169777 -0.40708148 -0.2083455 0.087314814 -0.44868946 -0.21942312 0.39785218
-0.03705949 -0.009805265 -0.2997176 0.48527065 -0.19888908 0.12434162 -0.1260243 0.43973327
-0.15520523 0.55047506 -0.27093565 -0.09542893 -0.3524572 -0.117749594 -0.46513787 0.56172097
0.37387523 -0.046586163 -0.14926523 0.08170931 0.44458193 0.33735603 0.5226826 -0.18658146
0.528775 -0.48859033 -0.2827521 0.07073707 -0.46253407 -0.15747622 -0.3686505 -0.023676619
-0.076372854 -0.15803812 0.23152328 0.4564753 -0.2290914 -0.063348375 -0.31044155 0.26937023
-0.22569667 -0.3410826 0.07139802 -0.40583774 0.13343118 -0.052617885 -0.12809014 -0.19631247
00000000: 1dee 113e fd57 70be 40c0 973e c5e6 47be
00000010: 9445 12be a2e8 86be 8f78 07be 95fc e03e
00000020: 5b5b e0be e74a a2be fc6c d0be 8658 55be
00000030: 1cd2 b23d a0ba e5be 74b0 60be 48b3 cb3e
00000040: b1cb 17bd 43a6 20bc 9674 99be 6575 f83e
00000050: 94a9 4bbe d2a6 fe3d 840c 01be b824 e13e
00000060: 1fee 1ebe efeb 0c3f 14b8 8abe 3e70 c3bd
00000070: 4575 b4be b326 f1bd 8d26 eebe f2cc 0f3f
00000080: 936c bf3e 22d1 3ebd fcd8 18be 3657 a73d
00000090: 3ea0 e33e eeb9 ac3e 87ce 053f 360f 3fbe
000000a0: cc5d 073f 8328 fabe e2c4 90be 99de 903d
000000b0: 44d1 ecbe 7241 21be c2bf bcbe 78f5 c1bc
000000c0: 5f69 9cbd bfd4 21be 7014 6d3e 21b7 e93e
000000d0: f096 6abe cbbc 81bd 32f2 9ebe e5ea 893e
000000e0: 071d 67be 61a2 aebe 2039 923d f7c9 cfbe
000000f0: 2fa2 083e da85 57bd 102a 03be 2306 49be

dense/bias f4 [64]
-0.2945259 0.07561447 0.2646437 -0.13253775 0.025422318 -0.19501814 -0.0054897256 -0.1665854
-0.2606279 0.14277208 -0.11100141 0.036956843 -0.20148744 0.0078030666 -0.19695774 -0.015105333
-0.1765432 0.27087668 -0.21600895 -0.08450838 0.0118735805 -0.17446521 -0.0811453 -0.20369293
0.24579859 -0.20381749 -0.25201932 -0.24548014 -0.18900658 -0.091585934 -0.08816789 0.08934525
-0.27753428 0.008854826 -0.24536753 0.030531913 0.082405224 -0.18382414 -0.20268184 -0.0318545
-0.0608984 -0.00020412174 -0.10638004 -0.20983927 0.120769106 0.10173516 -0.19810088 0.08735947
0.15542482 -0.117189795 -0.083970904 -0.19297846 -0.19728301 0.16003892 0.06109992 -0.35385734
-0.16703168 -0.057914864 -0.06293841 -0.21824448 -0.15484296 -0.013637258 -0.033117127 -0.13548338
00000000: 19cc 96be c2db 9a3d 617f 873e fab7 07be
00000010: 7742 d03c d6b2 47be 28e3 b3bb 5d95 2abe
00000020: 0571 85be d832 123e b554 e3bd 0f60 173d
00000030: b952 4ebe deb0 ff3b 4aaf 49be 5c7c 77bc
00000040: bec7 34be 59b0 8a3e 7331 5dbe bb12 adbd
00000050: 6889 423c 02a7 32be 822f a6bd e194 50be
00000060: a0b2 7b3e 88b5 50be ad08 81be 255f 7bbe
00000070: f18a 41be 6891 bbbd 5e91 b4bd a4fa b63d
00000080: f918 8ebe d513 113c a041 7bbe 101e fa3c
00000090: 12c4 a83d 653c 3cbe d48b 4fbe dd79 02bd
000000a0: 9a70 79bd 8309 56b9 c7dd d9bd 1be0 56be
000000b0: cb55 f73d 865a d03d f5da 4abe 86e9 b23d
000000c0: af27 1f3e 3401 f0bd f0f8 abbd 259c 45be
000000d0: 8f04 4abe 3ee1 233e e943 7a3d ca2c b5be
000000e0: 5a0a 2bbe 2338 6dbd dae5 80bd 7b7b 5fbe
000000f0: 278f 1ebe ce6e 5fbc d3a5 07bd 28bc 0abe

sequential/dense/MatMul f4 [64, 3000]
-0.03293725 0.019747518 0.020315051 -0.0056089233 0.027416762 -0.028120017 0.0373265 -0.025262266
0.032367762 0.035386495 -0.03488142 -0.02821488 0.0390622 0.0024680959 -0.0033180753 -0.019741032
0.030425481 -0.012075535 0.031534214 0.049886882 -0.0047284043 -0.012366537 0.032284886 0.008419276
-0.017196242 -0.02361074 -0.033908 0.010650233 -0.04184749 0.03332249 0.021994967 -0.005916863
0.011487147 0.020113988 0.0029949953 0.022307275 0.018587584 0.00583451 -0.002352287 -0.029209552
0.0020415843 -0.018526793 -0.005153764 0.002867705 -0.036662553 0.0045213536 0.01780663 -0.041773092
0.02030923 0.04121259 0.007070947 0.0289284 -0.01996023 0.010453088 -0.00039837408 -0.008713541
-0.0012508623 0.019758252 0.0025639348 0.033454705 0.027116891 0.022312945 0.030473668 0.026302496
0.028032461 -0.014800923 -0.04180193 0.011774583 0.00550706 -0.029017624 0.023329008 -0.0200373
0.023053853 0.008859094 -0.0037265355 -0.024551546 -0.008260921 -0.0021508501 0.03862234 0.011617497
0.041092426 0.026388213 -0.037374582 -0.029860456 0.031148586 -0.038520765 0.009074093 -0.007852295
-0.025271812 -0.010715475 0.007026767 0.03375711 0.029215977 -0.013245698 -0.040810462 -0.024316775
0.013735524 -0.01069409 -0.0070729805 -0.025737979 -0.011298302 -0.010794822 0.01758741 0.027175799
0.012042472 0.011819115 0.034174025 0.0083681755 0.016987585 -0.043406304 -0.012872543 0.04227203
-0.045766484 0.033572424 0.0066129635 0.036310643 -0.040342398 0.041729547 -0.04602803 0.0002935911
-0.034642328 -0.0014162879 -0.037227325 0.010220368 -0.015037686 -0.021333829 0.01995024 0.027647138
0.0044931266 -0.02126332 -0.007883918 0.048668377 0.042889405 0.01860741 0.019701067 0.041712053
-0.007192989 -0.007509055 0.022260688 0.036720775 -0.0075998367 -0.041065414 -0.03765407 0.02824872
-0.01976278 0.024131889 3.722003e-05 -0.01770438 0.017240956 0.024404518 0.029262194 0.0062518246
-0.01768344 0.00037573074 0.029893288 0.035896722 -0.01404629 -0.03621153 -0.012907503 -0.0014969085
0.01812483 -0.013121164 -0.002099861 0.006459411 0.0040214984 0.054898877 0.020700503 -0.028127637
-0.002403239 0.037441447 0.014193163 0.010828778 0.031581115 0.005020312 -0.01405218 0.04237433
-0.00036386185 -0.0049179257 -0.016869558 0.0003595882 0.05553546 -0.0058681173 -0.019870298 -0.0009479378
-0.016219018 -0.009398203 -0.020790057 -0.002745824 -0.018190643 0.034389753 -0.008917288 0.03849326
-0.03210054 0.052038986 0.0026513245 0.0017949857 0.047086276 0.024914091 0.01733119 -0.01951152
0.035226714 0.018324647 -0.011269968 -0.0052054985 0.037609998 -0.012658975 -0.018641178 -0.020395193
-0.0024762608 -0.0053327824 0.039891005 -0.011819263 -0.019370254 -0.0026436897 -0.030811064 0.0044191997
0.037716705 -0.008392083 0.0053839698 0.015899383 -0.008292463 0.025726417 0.039042406 -0.03110491
0.020593584 0.050728966 0.009850412 -0.021518048 0.0004197165 0.039618224 0.027369812 -0.014164567
0.046879813 0.016709765 -0.01667048 -0.020872734 -0.03974816 -0.0060917134 0.031090368 0.027948037
-0.03411047 0.0075513287 0.04996892 -0.033585954 -0.031597666 0.00694314 -0.016611833 0.034944873
0.021811219 -0.025426336 0.0145111885 -0.025008332 -0.033946283 0.028992627 -0.012391296 0.040458236
00000000: 36e9 06bd 8cc5 a13c c06b a63c 0fcb b7bb
00000010: 1e99 e03c f35b e6bc ace3 183d d0f2 cebc
00000020: 0f94 043d 6ef1 103d d2df 0ebd e422 e7bc
00000030: afff 1f3d c7bf 213b 1174 59bb f2b7 a1bc
00000040: dc3e f93c 77d8 45bc 052a 013d 3056 4c3d
00000050: bbf0 9abb 049d 4abc 283d 043d 01f1 093c
00000060: 22df 8cbc 506b c1bc 1de3 0abd 517e 2e3c
00000070: 4668 2bbd 2a7d 083d ca2e b43c 3fe2 c1bb
00000080: 9634 3c3c 17c6 a43c af47 443b bfbd b63c
00000090: fd44 983c 6b2f bf3b d428 1abb df48 efbc
000000a0: 1acc 053b 80c5 97bc e8e0 a8bb 1bf0 3b3b
000000b0: 792b 16bd dd27 943b 36df 913c 431a 2bbd
000000c0: 8b5f a63c 88ce 283d 67b3 e73b 40fb ec3c
000000d0: a383 a3bc 6e43 2b3c dddc d0b9 3dc3 0ebc
000000e0: f9f3 a3ba 0fdc a13c b007 283b cd07 093d
000000f0: 3e24 de3c a3c9 b63c eaa3 f93c 5578 d73c
00000100: 55a4 e53c 927f 72bc 8038 2bbd 2eea 403c
00000110: 9174 b43b 5eb6 edbc 7a1c bf3c 4425 a4bc
00000120: 6fdb bc3c bc25 113c e438 74bb 5320 c9bc
00000130: d058 07bc 47f5 0cbb 7532 1e3d 5057 3e3c
00000140: 8850 283d 182c d83c 1716 19bd ea9d f4bc
00000150: 522b ff3c f3c7 1dbd 81ab 143c eaa6 00bc
00000160: d506 cfbc f68f 2fbc cb40 e63b e544 0a3d
00000170: 5856 ef3c 7c04 59bc df28 27bd f933 c7bc
00000180: f70a 613c 4436 2fbc 76c4 e7bb 74d8 d2bc
00000190: 831c 39bc c4dc 30bc 7913 903c c89f de3c
000001a0: ca4d 453c f6a4 413c 10fa 0b3d ac1a 093c
000001b0: 8c29 8b3c cfca 31bd 5ce7 52bc 7025 2d3d
000001c0: a375 3bbd 3d83 093d 8fb1 d83b 78ba 143d
000001d0: 123e 25bd 9aec 2a3d e387 3cbd 21ed 9939
000001e0: 1de5 0dbd bca2 b9ba ae7b 18bd 5573 273c
000001f0: a060 76bc 48c4 aebc b06e a33c 407c e23c
00000200: 143b 933b 6a30 aebc 8c2b 01bc 7e58 473d
00000210: cdac 2f3d 916e 983c 2264 a13c 42da 2a3d
00000220: 2ab3 ebbb 850e f6bb 0c5c b63c 8668 163d
00000230: 0d08 f9bb 3534 28bd 273b 1abd dc69 e73c
00000240: 8ee5 a1bc 3db0 c53c b41c 1c38 c708 91bc
00000250: e83c 8d3c fceb c73c 45b7 ef3c 1bdc cc3b
00000260: dddc 90bc bafd c439 c5e2 f43c 7108 133d
00000270: 6922 66bc 8b52 14bd fe79 53bc ea33 c4ba
00000280: 867a 943c 27fa 56bc d29d 09bb 77a9 d33b
00000290: c6c6 833b a5dd 603d 1a94 a93c ee6b e6bc
000002a0: a97f 1dbb 345c 193d 718a 683c 306b 313c
000002b0: 335b 013d 6e81 a43b 1d3b 66bc b590 2d3d
000002c0: b6c4 beb9 8d26 a1bb 0732 8abc 1c87 bc39
000002d0: 2779 633d 5649 c0bb 09c7 a2bc 077f 78ba
000002e0: bfdd 84bc ecfa 19bc e94f aabc 48f3 33bb
000002f0: 8b04 95bc 45dc 0c3d d119 12bc 1cab 1d3d
00000300: db7b 03bd d526 553d d8c1 2d3b ba45 eb3a
00000310: 8add 403d a318 cc3c 24fa 8d3c a0d6 9fbc
00000320: e349 103d 921d 963c aca5 38bc e392 aabb
00000330: f10c 1a3d 9767 4fbc 62b5 98bc d213 a7bc
00000340: c348 22bb 9fbe aebb c064 233d 95a5 41bc
00000350: 5eae 9ebc c141 2dbb 7c67 fcbc efce 903b
00000360: d57c 1a3d f37e 09bc 036c b03b 6c3f 823c
00000370: 1cdd 07bc 35c0 d23c eeea 1f3d b9cf febc
00000380: e0b3 a83c 2dc9 4f3d 9f63 213c 9e46 b0bc
00000390: 650d dc39 b846 223d a836 e03c 8012 68bc
000003a0: 0c05 403d ebe2 883c 8890 88bc 4cfd aabc
000003b0: f7ce 22bd ff9c c7bb 3ab1 fe3c 48f3 e43c
000003c0: 6cb7 0bbd 2371 f73b 36ac 4c3d 6d91 09bd
000003d0: 8e6c 01bd 4883 e33b 8a15 88bc 5b22 0f3d
000003e0: 71ad b23c e44a d0bc 56c0 6d3c 46de ccbc
000003f0: 420b 0bbd f281 ed3c dd04 4bbc 89b7 253d

sequential/dense_1/MatMul f4 [64, 64]
-0.0225978 0.0138654215 0.07141545 -0.08511845 -0.1881492 -0.043094765 0.096239366 -0.045333054
-0.12898825 -0.11988141 -0.11281656 -0.21748298 0.09641623 -0.16812621 0.03518581 0.09532065
0.0491388 -0.0076123253 -0.18094727 0.050276306 -0.14800015 -0.13467409 -0.113645695 -0.073645316
0.036674306 0.08287414 0.09586954 -0.11852405 0.099784784 -0.21635236 -0.03137023 -0.066232674
0.03614359 -0.049701113 -0.09867046 -0.101176664 -0.2278156 0.065617636 -0.035038624 -0.005651139
-0.022384841 -0.062239673 -0.24202576 0.16350305 -0.22187476 -0.04335652 -0.066030554 -0.011738205
-0.17155628 0.04030307 -0.028622199 -0.01377469 0.015621242 -0.21349941 -0.18977766 -0.16247326
0.019551337 -0.1882932 0.08924313 -0.18799166 -0.050778817 0.0966984 -0.0013481613 -0.044186153
-0.16502425 -0.17631495 -0.21880439 -0.03034367 -0.11640268 0.03140148 -0.10471926 -0.16614872
-0.0776414 0.13904594 -0.22217591 -0.14308985 -0.22298804 -0.06240788 -0.045302436 -0.10893585
-0.16816641 -0.11905224 -0.12739599 0.082102366 -0.018161671 -0.19589134 -0.15453403 0.105490595
0.056721322 0.08474069 -0.06929288 -0.22609685 -0.06374086 -0.09000416 -0.15694985 0.0062751723
0.11626298 0.09158261 0.014430071 -0.2225164 0.08706751 -0.016607342 -0.17102852 0.0038682858
-0.21511789 -0.14231001 0.07555586 -0.19492874 -0.010868101 0.056025505 0.12336235 -0.25552472
0.09068645 -0.026247898 0.099313155 0.09262871 0.1213894 0.08428547 0.024186745 0.079171985
-0.12699185 0.08338889 -0.02279723 0.0063670864 -0.17089078 -0.024586074 0.05485549 -0.15078688
0.13522443 -0.06478982 -0.11959174 0.0025794287 0.0060393484 0.12958641 0.051527116 0.017584696
0.015862687 -0.16236538 -0.17085408 0.103814155 0.121020935 0.08293067 0.12219427 0.04589502
-0.2046428 0.040581763 -0.20071572 -0.022131357 0.05118108 0.11941165 -0.17959552 0.094268434
0.058571037 -0.039724268 0.088727854 0.10222413 -0.109258235 0.024862757 -0.026769252 -0.1412667
0.08301669 -0.027002815 0.10825076 -0.19954185 -0.23255883 0.1888837 -0.07972401 0.010721315
-0.14678094 0.069721736 0.08188817 0.016813118 -0.054900885 -0.115297675 -0.032880157 -0.15248884
0.082800955 -0.0032110824 -0.083392225 -0.12456302 0.04095911 -0.14364238 -0.11999367 0.1048715
-0.10595982 0.19198099 0.12186716 -0.1514267 0.079335995 0.084558144 0.00017577277 0.100682
0.09662531 0.13460605 0.10250695 -0.24659331 -0.083373286 0.033671137 0.044634935 -0.072298534
-0.15530348 0.030283539 0.0685133 -0.15237547 0.03774166 -0.05440779 -0.052033346 0.06878048
-0.006875976 0.030341756 -0.19433247 -0.25787055 -0.16656372 0.113398455 -0.06646496 -0.15986264
-0.21158879 -0.12872463 -0.17148986 -0.18701178 -0.10080834 0.021579364 0.09199471 -0.052553847
-0.13456757 -0.11715113 0.08080389 0.10075067 -0.029333584 0.06599571 -0.21411587 -0.10350495
0.12557189 0.09813766 -0.2332028 0.033350326 0.000872634 -0.063729614 -0.20397031 -0.21920188
-0.2426461 0.017186685 -0.18687682 0.06381436 -0.22123004 -0.22227573 -0.09179511 -0.05750069
0.12472942 -0.054092642 0.08259285 -0.13388988 -0.026901798 -0.23154706 -0.10921476 0.008885769
00000000: 051f b9bc cb2b 633c 4342 923d 9552 aebd
00000010: 2faa 40be 2384 30bd 2519 c53d 27af 39bd
00000020: 7f15 04be 6284 f5bd 5e0c e7bd dcb3 5ebe
00000030: df75 c53d 4729 2cbe ff1e 103d 7937 c33d
00000040: c445 493d d070 f9bb 3e4a 39be 87ee 4d3d
00000050: 5a8d 17be 01e8 09be 13bf e8bd 5bd3 96bd
00000060: cc37 163d ebb9 a93d 4057 c43d bdbc f2bd
00000070: f75b cc3d 798b 5dbe 127e 00bd ffa4 87bd
00000080: 4d0b 143d 6593 4bbd bd13 cabd b635 cfbd
00000090: 7e48 69be 8a62 863d a984 0fbd 312d b9bb
000000a0: 6a60 b7bc 07ef 7ebd 9ad5 77be 586d 273e
000000b0: 2333 63be 9b96 31bd 073b 87bd 9a51 40bc
000000c0: 73ac 2fbe d514 253d 1a79 eabc 3daf 61bc
000000d0: 3df0 7f3c 979f 5abe 1355 42be 645f 26be
000000e0: 202a a03c efcf 40be 1ac5 b63d e380 40be
000000f0: 73fd 4fbd d009 c63d c9b4 b0ba 8afc 34bd
00000100: 1efc 28be e88b 34be 420e 60be 4a93 f8bc
00000110: 8764 eebd d79e 003d 0d77 d6bd e422 2abe
00000120: 7402 9fbd 0f62 0e3e 1582 63be 2586 12be
00000130: fa56 64be 689f 7fbd 0c8f 39bd c219 dfbd
00000140: d133 2cbe a9d1 f3bd 1874 02be 4925 a83d
00000150: c9c7 94bc bd97 48be 2b3e 1ebe 740b d83d
00000160: 9e54 683d 878c ad3d 6de9 8dbd ef85 67be
00000170: 918a 82bd 1a54 b8bd 76b7 20be f69f cd3b
00000180: 491b ee3d aa8f bb3d 1b6c 6c3c 57db 63be
00000190: 7350 b23d 1f0c 88bc 1a22 2fbe 1183 7d3b
000001a0: dd47 5cbe b7b9 11be 08bd 9a3d 669b 47be
000001b0: 1f10 32bc 007b 653d 66a5 fc3d 23d4 82be
000001c0: d1b9 b93d d505 d7bc b264 cb3d 1fb4 bd3d
000001d0: 019b f83d dc9d ac3d 4823 c63c ec24 a23d
000001e0: 270a 02be cbc7 aa3d 42c1 babc fea2 d03b
000001f0: fefd 2ebe bc68 c9bc 26b0 603d e067 1abe
00000200: 4678 0a3e 86b0 84bd 84ec f4bd a20b 293b
00000210: bae5 c53b 4db2 043e 190e 533d c80d 903c
00000220: 77f2 813c 1c43 26be 5ff4 2ebe 849c d43d
00000230: d3d9 f73d 8ed7 a93d fd40 fa3d 6bfc 3b3d
00000240: e28d 51be 1039 263d 6c88 4dbe d24c b5bc
00000250: 41a3 513d 188e f43d e3e7 37be cf0f c13d
00000260: 2fe8 6f3d eab5 22bd f3b6 b53d e25a d13d
00000270: c8c2 dfbd fbac cb3c 314b dbbc 38a8 10be
00000280: a804 aa3d 0235 ddbc 93b2 dd3d b354 4cbe
00000290: e723 6ebe bb6a 413e 5746 a3bd 74a8 2f3c
000002a0: be4d 16be 45ca 8e3d fcb4 a73d aabb 893c
000002b0: c0df 60bd 3021 ecbd 58ad 06bd 0926 1cbe
000002c0: 8c93 a93d 0671 52bb 8bc9 aabd e61a ffbd
000002d0: bdc4 273d fd16 13be 3ebf f5bd dec6 d63d
000002e0: 7601 d9bd aa96 443e 7d95 f93d 9a0f 1bbe
000002f0: e97a a23d d22c ad3d a54f 3839 5d32 ce3d
00000300: 7ee3 c53d 2bd6 093e 2aef d13d f582 7cbe
00000310: 9dbf aabd bfea 093d 1fd3 363d 4111 94bd
00000320: e007 1fbe 2f15 f83c b350 8c3d 5108 1cbe
00000330: 0097 1a3d b4da 5ebd eb20 55bd c8dc 8c3d
00000340: de4f e1bb 468f f83c 17ff 46be 9c07 84be
00000350: ae8f 2abe 733d e83d c81e 88bd 08b3 23be
00000360: bbaa 58be 64d0 03be 0a9b 2fbe 0480 3fbe
00000370: 9a74 cebd 35c7 b03c b967 bc3d b442 57bd
00000380: 15cc 09be efec efbd 837c a53d 5e56 ce3d
00000390: fc4c f0bc c228 873d 3141 5bbe 67fa d3bd
000003a0: eb95 003e 66fc c83d b7cc 6ebe 5a9a 083d
000003b0: 7ac1 643a ac84 82bd 98dd 50be 7576 60be
000003c0: 3878 78be 17cb 8c3c a35c 3fbe 1ab1 823d
000003d0: 218a 62be 409c 63be 13ff bbbd d885 6bbd
000003e0: 2372 ff3d 3f90 5dbd 7126 a93d 6e1a 09be
000003f0: 2961 dcbc ac1a 6dbe fdab dfbd 9e95 113c

sequential/dense_2/MatMul f4 [4, 64]
-0.056770947 -0.031004714 0.025743326 0.006257232 -0.026929526 0.14397702 -0.13393025 -0.044617876
0.14829573 0.11533766 -0.07617326 0.18104975 0.09845401 0.054729495 -0.15298711 -0.20107004
-0.19059709 -0.0951266 0.12475208 -0.17036392 0.24290995 -0.16405332 -0.089071 0.13318284
-0.11697525 0.037350126 0.14075093 -0.18574437 0.03421915 0.15960369 0.25346717 -0.085831225
0.063096635 -0.097881004 0.0022144765 -0.1286672 -0.10075922 -0.070354305 0.09718393 0.13589458
-0.17179327 -0.007264269 0.15916911 0.18721257 0.14664982 0.05814857 0.11992424 -0.19398403
-0.10816388 -0.03143659 -0.14054103 0.024355656 0.004614407 -0.087980784 0.119129166 -0.17370147
0.06355138 0.07174661 -0.20885928 -0.042740103 -0.016379792 -0.19758894 -0.07912544 0.117965
0.08820579 -0.18362154 0.037062883 -0.15992756 0.05739156 -0.05074152 -0.09098977 0.014211526
0.14176428 0.10694397 -0.10098591 -0.01909971 0.1012862 -0.08421181 -0.16853552 -0.20125419
-0.17603303 -0.09002751 0.09073742 -0.11682635 0.14564258 0.12708622 -0.087516166 0.1410206
-0.15517844 0.11995138 0.0014462026 -0.21908616 -0.06876352 0.22303672 0.2398458 0.097090304
0.061922092 -0.06392756 0.1254641 0.046002652 0.029400293 -0.01158418 0.098062836 0.11356159
-0.0054954626 -0.08032767 0.15693578 0.20122693 -0.12936352 0.030658418 0.10222351 -0.11285939
-0.045075297 -0.20264994 -0.085600995 0.078261614 -0.055870973 -0.06974341 -0.10307835 -0.16992475
0.0408333 -0.102736615 -0.22921002 -0.15164821 -0.015794378 -0.15120961 -0.058379136 -0.07575365
0.025656875 0.0056120185 0.027184254 -0.045560252 0.23554963 0.016205944 0.21217905 -0.02967985
0.14650589 0.1142695 -0.08807507 0.09605954 0.101757824 0.042621538 -0.15596853 -0.20365712
-0.21165052 -0.091715984 0.114561535 -0.1742756 0.24245182 -0.07935017 -0.08827178 0.13583383
-0.06436574 0.03446347 0.124063484 -0.17525016 0.038438965 -0.07386808 0.24460419 -0.075940676
0.060738027 0.06573485 0.13805117 0.05821496 -0.10640996 -0.10314053 0.09750708 0.074882716
-0.16759583 -0.013790902 0.03223013 0.18852037 0.13162945 0.06565741 0.099920236 -0.10815549
0.16773851 0.043180127 -0.10251291 0.03430645 0.014798685 -0.16770628 0.11439529 -0.17240953
-0.05009588 0.047047354 -0.20311508 -0.04853858 -0.013124237 -0.2088901 0.030603373 0.16089079
0.08279909 -0.04898011 0.034469645 -0.047611333 -0.17789434 0.07344869 0.22458372 0.009689493
0.14136654 0.112936735 -0.10464965 0.03147209 0.10416792 -0.029310556 -0.16296878 -0.20801647
-0.14822541 -0.073415235 -0.10783341 -0.15600567 -0.19031887 0.13117589 -0.08201077 0.14019871
-0.10914794 0.073589325 0.061429884 -0.00489414 -0.0030485766 0.053027023 0.24153556 0.011698319
0.06008722 0.14931728 -0.14145368 0.024315093 -0.057782434 -0.120392434 0.09416225 0.14655443
-0.092816986 -0.052320957 -0.10736125 0.19727549 -0.0051284307 0.05803729 -0.059132267 -0.17886165
0.118801184 0.03524687 -0.15723822 0.0663391 0.039562576 -0.1365622 0.0679768 -0.16884324
-0.20647787 0.09282943 -0.20949154 -0.10004484 -0.020863168 -0.10558093 -0.18607205 0.18638036
00000000: a788 68bd 99fd fdbc abe3 d23c 7709 cd3b
00000010: 4f9b dcbc b66e 133e 0325 09be 3cc1 36bd
00000020: d6da 173e 2736 ec3d ba00 9cbd 1b65 393e
00000030: 42a2 c93d 092c 603d a7a8 1cbe 4ee5 4dbe
00000040: e22b 43be bcd1 c2bd 057e ff3d e173 2ebe
00000050: 63bd 783e 98fd 27be db6a b6bd 1561 083e
00000060: b890 efbd 72fc 183d 0321 103e c633 3ebe
00000070: 6129 0c3d 266f 233e 73c6 813e 48c8 afbd
00000080: cf38 813d d675 c8bd c020 113b 56c1 03be
00000090: da5a cebd eb15 90bd 5e08 c73d f327 0b3e
000000a0: 93ea 2fbe 1b09 eebb 3afd 223e a7b4 3f3e
000000b0: 5f2b 163e 322d 6e3d d79a f53d c0a3 46be
000000c0: 0685 ddbd a7c3 00bd fde9 0fbe 8385 c73c
000000d0: 7434 973b 452f b4bd fef9 f33d ccde 31be
000000e0: 3a27 823d e3ef 923d 35df 55be 3f10 2fbd
000000f0: ea2e 86bc c154 4abe 850c a2bd a297 f13d
00000100: 3da5 b43d 4907 3cbe 40cf 173d 0dc4 23be
00000110: 6a13 6b3d 57d6 4fbd d858 babd 76d7 683c
00000120: a82a 113e 7105 db3d b3d1 cebd ff76 9cbc
00000130: 246f cf3d 3e77 acbd 9394 2cbe 9415 4ebe
00000140: 0142 34be 5860 b8bd 8ad4 b93d a742 efbd
00000150: 5423 153e e422 023e ad3b b3bd b467 103e
00000160: 19e7 1ebe 12a9 f53d 828e bd3a 1f58 60be
00000170: e3d3 8cbd bd63 643e 239a 753e 48d7 c63d
00000180: 05a2 7d3d 74ec 82bd a979 003e 476d 3c3d
00000190: e2d8 f03c 93cb 3dbc 2bd5 c83d fb92 e83d
000001a0: 4813 b4bb d582 a4bd c6b3 203e 6f0e 4e3e
000001b0: df77 04be 5d27 fb3c 8f5a d13d d322 e7bd
000001c0: e0a0 38bd 7783 4fbe 934f afbd a047 a03d
000001d0: f6d8 64bd a2d5 8ebd be1a d3bd c100 2ebe
000001e0: d240 273d 9367 d2bd 08b6 6abe ab49 1bbe
000001f0: 3663 81bc b1d6 1abe f61e 6fbd bb24 9bbd
00000200: 5e2e d23c 06e5 b73b 83b1 de3c 639d 3abd
00000210: ec33 713e 54c2 843c 7745 593e 2823 f3bc
00000220: a405 163e 2106 ea3d b460 b4bd ddba c43d
00000230: 6866 d03d ec93 2e3d 37b6 1fbe 7e8b 50be
00000240: eaba 58be 97d5 bbbd 3d9f ea3d 4e75 32be
00000250: 4a45 783e 5882 a2bd d6c7 b4bd 0618 0b3e
00000260: 2fd2 83bd 9129 0d3d ff14 fe3d c774 33be
00000270: 2d72 1d3d 2648 97bd 8579 7a3e c986 9bbd
00000280: 70c8 783d fe9f 863d 495d 0d3e cf72 6e3d
00000290: 77ed d9bd 583b d3bd cbb1 c73d 1c5c 993d
000002a0: 3e9e 2bbe 3cf3 61bc be03 043d 7c0b 413e
000002b0: dfc9 063e 6477 863d fba2 cc3d a080 ddbd
000002c0: a5c3 2b3e a5dd 303d 4af2 d1bd ec84 0c3d
000002d0: 2f76 723c 32bb 2bbe 1448 ea3d 208c 30be
000002e0: 5631 4dbd bab4 403d 66fd 4fbe 64d0 46bd
000002f0: 0a07 57bc 49e7 55be edb3 fa3c 8ec0 243e
00000300: 9292 a93d 5e9f 48bd 0b30 0d3d 1a04 43bd
00000310: ef29 36be 446c 963d 46f9 653e aec0 1e3c
00000320: 64c2 103e 604b e73d 8e52 d6bd e1e8 003d
00000330: fe55 d53d b11c f0bc 4ae1 26be 4502 55be
00000340: 67c8 17be ba5a 96bd c3d7 dcbd f3bf 1fbe
00000350: f3e2 42be f952 063e 43f5 a7bd 4090 0f3e
00000360: f588 dfbd 00b6 963d e79d 7b3d 065f a0bb
00000370: a1ca 47bb dd32 593d 1955 773e 4eaa 3f3c
00000380: 041e 763d a1e6 183e 3cd9 10be 7230 c73c
00000390: 46ad 6cbd 4f90 f6bd 23d8 c03d 5d12 163e
000003a0: d516 bebd 804e 56bd 37e0 dbbd 9602 4a3e
000003b0: 650c a8bb 82b8 6d3d ad34 72bd 8227 37be
000003c0: 094e f33d 065f 103d 0e03 21be cbdc 873d
000003d0: 5e0c 223d f6d6 0bbe 6c37 8b3d 3ee5 2cbe
000003e0: ef6e 53be 5b1d be3d f384 56be 4fe4 ccbd
000003f0: 3ce9 aabc d13a d8bd ac89 3ebe 7eda 3e3e
