student_model.tflite (tflite, 788036 bytes, 6 tensors)

dense_2/bias f4 [4]
-0.8976362 0.78887635 0.1268828 0.53536266
00000000: 7ccb 65bf cdf3 493f 91ed 013e 870d 093f

dense_1/bias f4 [64]
0.11123251 -0.3111375 0.021363404 -0.30150452 -0.08524916 -0.28671554 -0.07797441 0.68225515
-0.517922 -0.45238492 -0.7115415 -0.29480833 0.23292434 -0.66342264 -0.28919595 0.20920962
-0.016959604 0.0028323715 -0.45075592 0.45203906 -0.19819336 -0.064633235 -0.05119395 0.5483804
-0.034161 0.42913347 -0.36625427 -0.03187902 -0.2112248 -0.09570364 -0.55892634 0.73491615
0.6829511 0.019154115 -0.1359949 0.066788904 0.3597088 0.43382522 0.5851743 -0.20043468
0.6420544 -0.73376876 -0.51053447 0.013447615 -0.7921881 0.012541476 -0.504274 0.022553973
-0.0440248 -0.10558484 0.088637024 0.62598115 -0.105386086 -0.073531896 -0.3959756 0.32406148
-0.4065565 -0.3696302 0.23361222 -0.5347897 0.35082164 -0.07149541 -0.084988736 -0.16701524
00000000: dfcd e33d 6a4d 9fbe 4e02 af3c cd5e 9abe
00000010: 1d97 aebd 61cc 92be 0cb1 9fbd 46a8 2e3f
00000020: 8996 04bf ff9e e7be 9527 36bf 1ef1 96be
00000030: b883 6e3e 11d6 29bf 7e11 94be 0c3b 563e
00000040: deee 8abc 4f9f 393b 7bc9 e6be aa71 e73e
00000050: 33f3 4abe 6e5e 84bd bfb0 51bd a862 0c3f
00000060: 68ec 0bbd 62b7 db3e ae85 bbbe 9393 02bd
00000070: 504b 58be 4500 c4bd cc15 0fbf 7723 3c3f
00000080: e2d5 2e3f 17e9 9c3c 3f42 0bbe 9fc8 883d
00000090: c02b b83e 571e de3e fccd 153f c03e 4dbe
000000a0: ad5d 243f 45d8 3bbf 63b2 02bf 6353 5c3c
000000b0: d7cc 4abf c37a 4d3c 1a18 01bf 1cc3 b83c
000000c0: 5953 34bd dd3c d8bd 5487 b53d 4d40 203f
000000d0: a9d4 d7bd e497 96bd 50bd cabe 63eb a53e
000000e0: 2c28 d0be 2b40 bdbe 0b38 6f3e fae7 08bf
000000f0: e59e b33e 2f6c 92bd 930e aebd 0b06 2bbe

dense/bias f4 [64]
-0.23717535 0.19721352 0.05656579 -0.21986213 0.14806022 -0.32737133 -0.10374056 -0.21995327
-0.39700907 -0.017791884 -0.14546497 0.060769897 -0.28353527 0.05530638 -0.45070747 -0.01181481
-0.25815085 0.24871585 -0.24995999 0.050688308 -0.101966985 -0.118493095 -0.21759272 -0.27460918
-0.17085868 -0.25105444 -0.24786171 -0.3793063 0.17555651 -0.30704677 -0.29301763 -0.10332946
-0.32864818 0.083873294 -0.44723302 -0.039605826 -0.15001608 -0.33986178 -0.28419667 -0.27822962
0.42487842 0.03290608 -0.23283657 -0.34033662 0.52174854 0.08029971 -0.17914025 0.20036143
0.06694025 -0.23908313 -0.15120503 -0.3297843 -0.18095854 0.2650892 0.06879539 -0.2847321
-0.34700027 -0.31269804 -0.2635409 -0.20421924 -0.3782188 -0.30752704 -0.4956467 -0.11995262
00000000: 18de 72be 57f2 493e 88b1 673d 8a23 61be
00000010: 199d 173e 379d a7be ee75 d4bd 6e3b 61be
00000020: c644 cbbe 49c0 91bc c5f4 14be dbe9 783d
00000030: 892b 91be f188 623d 21c3 e6be e892 41bc
00000040: 592c 84be 5eaf 7e3e 83f5 7fbe 8b9e 4f3d
00000050: 11d4 d0bd 82ac f2bd a0d0 5ebe 9399 8cbe
00000060: 94f5 2ebe 358a 80be 76cf 7dbe 6f34 c2be
00000070: 16c5 333e 3c35 9dbe 6806 96be 659e d3bd
00000080: 9344 a8be c3c5 ab3d bafb e4be b839 22bd
00000090: d19d 19be 5d02 aebe 3a82 91be 1d74 8ebe
000000a0: aa89 d93e 87c8 063d b66c 6ebe 9a40 aebe
000000b0: 5091 053f 2d74 a43d 8b70 37be 8c2b 4d3e
000000c0: f817 893d 35d2 74be 7ed5 1abe 7dd9 a8be
000000d0: 324d 39be c6b9 873e 99e4 8c3d 68c8 91be
000000e0: 05aa b1be f519 a0be d5ee 86be d91e 51be
000000f0: e5a5 c1be 2f74 9dbe 67c5 fdbe b8a9 f5bd

sequential/dense/MatMul f4 [64, 3000]
-0.04620204 0.007878595 -0.0028929408 0.0016732902 0.014446864 -0.028034722 0.025874391 -0.015139593
0.013662033 0.031632 -0.043741126 -0.015041289 0.02968037 0.00753793 -0.0044910214 -0.0038115866
0.03130032 -0.0060729543 0.024652302 0.061637573 -0.009519231 -0.004218589 0.034231275 0.026994573
-0.020215673 -0.020531306 -0.03317584 0.025552427 -0.047948714 0.03531979 0.016496962 0.0021470557
-8.430549e-05 0.019925077 0.0051302877 0.041817375 0.027549602 0.031855904 0.02391978 0.006214398
0.021353997 0.008795409 0.011516593 0.04013869 -0.01736705 0.035972327 0.03538694 -0.014091293
0.034868345 0.061183006 0.014424734 0.04175543 -0.01782452 0.015117836 -0.006534824 -0.006520935
-0.003357686 0.020515963 -0.0044490136 0.033299346 0.021920266 0.026845593 0.03627828 0.037296217
0.033968717 0.0103544695 -0.028367355 0.033935778 0.019011518 -0.0048850565 0.040857945 -0.00614801
0.023096737 0.010103797 -0.005609213 -0.035899516 -0.020327175 -0.017707212 0.02616813 -0.011843507
0.013635681 0.0050266176 -0.055959538 -0.044964153 0.016513413 -0.04428058 0.008482217 -0.015815096
-0.03386177 -0.015370911 -0.0030097547 0.02631949 0.02277643 -0.018549575 -0.035592396 -0.024563354
0.015133232 -0.013917774 -0.0009710212 -0.026354026 -0.009561704 -0.013403562 0.014745228 0.01294872
-0.008368306 -0.00046769998 0.021094298 -0.008623808 -0.003187299 -0.055477668 -0.023006042 0.02473389
-0.060253743 0.020201059 0.011152232 0.029402824 -0.038238693 0.039720394 -0.03590283 0.0010308403
-0.02439146 0.01611685 -0.015390991 0.026381351 -0.009181413 -6.9583257e-07 0.047319815 0.04855426
0.024566643 0.0059152874 0.021299254 0.060037736 0.067683004 0.041027576 0.04838253 0.059337128
0.019136058 0.017164513 0.047652334 0.053553417 0.0064819367 -0.017551675 -0.020903917 0.035272885
-0.020201504 0.037293684 0.013516353 -0.013761346 0.019917963 0.025074434 0.036465798 -0.0063195154
-0.02245238 -0.011688895 0.022641277 0.0073847864 -0.032611746 -0.05141979 -0.028028945 -0.01943207
-0.004820196 -0.021080345 -0.009200414 -0.0058036223 -0.01620595 0.03890439 0.0064185746 -0.04938751
-0.012439007 0.025845679 0.016372876 -0.0056607733 0.021642841 -0.009421475 -0.0124645475 0.028204884
-0.012816468 -0.014644463 -0.024045037 -0.015510853 0.04262284 -0.007866781 -0.02166648 -0.0103281895
-0.021486431 -0.020850962 -0.01927835 -0.03156323 -0.029832054 0.010164215 -0.0088003315 0.009966904
-0.044154346 0.035665266 -0.0037312503 -0.008790693 0.03770245 0.023727696 0.022344144 -0.01695057
0.03544163 0.025688628 -0.0016177637 -0.0052465065 0.043493196 -0.01798993 -0.017433628 -0.03877094
-0.007912992 -0.026269568 0.03464279 -0.029564345 -0.03334931 -0.01598573 -0.040105123 -0.008231573
0.023010192 -0.018670248 -0.009927358 0.006605016 -0.022052579 0.01681137 0.037853297 -0.03771996
0.018553628 0.03599166 0.0033223673 -0.042828042 -0.012500637 0.015386426 0.018613886 -0.015996035
0.03511311 0.00924606 -0.010165093 -0.005055825 -0.03652144 0.009000752 0.048187964 0.04878652
-0.019822048 0.01523593 0.06037944 -0.022384638 -0.016695783 0.007906405 -0.0079563325 0.042731944
0.028679285 -0.02290195 0.008051113 -0.01365098 -0.042794246 0.03270463 -0.030064564 0.047179252
00000000: 5a3e 3dbd 3915 013c 7e97 3dbb 4d52 db3a
00000010: 8ab2 6c3c 13a9 e5bc 88f6 d33c 0e0c 78bc
00000020: b8d6 5f3c 8e90 013d e529 33bd bd6f 76bc
00000030: 3f24 f33c bd00 f73b 6b29 93bb d0cb 79bb
00000040: c434 003d a2ff c6bb a0f3 c93c ae77 7c3d
00000050: 8cf6 1bbc 173c 8abb 1836 0c3d b923 dd3c
00000060: 579b a5bc 4531 a8bc 64e3 07bd 5353 d13c
00000070: df65 44bd 7cab 103d a324 873c 9eb5 0c3b
00000080: 2acd b0b8 ea39 a33c f91b a83b b248 2b3d
00000090: b4af e13c 567b 023d 6af3 c33c 26a2 cb3b
000000a0: 94ee ae3c 9f1a 103c 18b0 3c3c 7868 243d
000000b0: 5845 8ebc b857 133d e5f1 103d 2bdf 66bc
000000c0: 1cd2 0e3d 089b 7a3d b855 6c3c be07 2b3d
000000d0: ba04 92bc cdb0 773c 1422 d6bb 91ad d5bb
000000e0: a00c 5cbb 1811 a83c 08c9 91bb e564 083d
000000f0: 2192 b33c 4aeb db3c 8998 143d ebc3 183d
00000100: c822 0b3d cba5 293c a862 e8bc 3e00 0b3d
00000110: 0bbe 9b3c d312 a0bb a95a 273d 3f75 c9bb
00000120: 5e35 bd3c 658a 253c 7dcd b7bb 5f0b 13bd
00000130: 2d85 a6bc b70e 91bc 8c5e d63c 450b 42bc
00000140: 3168 5f3c 53b6 a43b d435 65bd 552c 38bd
00000150: 2347 873c 8e5f 35bd fff8 0a3c a98e 81bc
00000160: a4b2 0abd 46d6 7bbc 4e3f 45bb f99b d73c
00000170: a395 ba3c 47f5 97bc 55c9 11bd 1639 c9bc
00000180: 60f1 773c 6007 64bc 218c 7eba 66e4 d7bc
00000190: b1a8 1cbc 9d9a 5bbc f895 713c de26 543c
000001a0: 381b 09bc a135 f5b9 f3cd ac3c df4a 0dbc
000001b0: 01e2 50bb 8d3c 63bd 2b77 bcbc ba9e ca3c
000001c0: a1cc 76bd b17c a53c dab7 363c 31de f03c
000001d0: 2da0 1cbd dab1 223d d90e 13bd 431d 873a
000001e0: 99d0 c7bc 7c07 843c 7f2a 7cbc b41d d83c
000001f0: a36d 16bc 40c9 3ab5 6cd2 413d d5e0 463d
00000200: fc3f c93c 07d5 c13b c67b ae3c 21ea 753d
00000210: 639d 8a3d 880c 283d c32c 463d 7d0b 733d
00000220: 39c3 9c3c 989c 8c3c 182f 433d d45a 5b3d
00000230: 6d66 d43b 88c8 8fbc b13e abbc 4d7a 103d
00000240: a07d a5bc 43c1 183d b273 5d3c 4577 61bc
00000250: ff2a a33c e668 cd3c 295d 153d f013 cfbb
00000260: 0eee b7bc c782 3fbc 337a b93c 14fc f13b
00000270: e593 05bd 8f9d 52bd f59c e5bc 0130 9fbc
00000280: bcf2 9dbb b0b0 acbc 55bd 16bc 502c bebb
00000290: 57c2 84bc 365a 1f3d e852 d23b 8f4a 4abd
000002a0: facc 4bbc 51ba d33c 6920 863c 027e b9bb
000002b0: 544c b13c 885c 1abc 1a38 4cbc ee0d e73c
000002c0: 2afc 51bc 54ef 6fbc 19fa c4bc 3c21 7ebc
000002d0: 4995 2e3d ace3 00bc e77d b1bc 9137 29bc
000002e0: 5004 b0bc a3cf aabc a1ed 9dbc 7248 01bd
000002f0: 5a62 f4bc cf87 263c 442f 10bc 3a4c 233c
00000300: 30db 34bd be15 123d fe87 74bb d706 10bc
00000310: e26d 1a3d 9660 c23c 110b b73c ecdb 8abc
00000320: 3e2b 113d f570 d23c 240b d4ba e3ea abbb
00000330: ec25 323d 9e5f 93bc f8d0 8ebc 47ce 1ebd
00000340: 7ea5 01bc 4733 d7bc 99e5 0d3d ed30 f2bc
00000350: 4999 08bd 81f4 82bc 4545 24bd b8dd 06bc
00000360: df7f bc3c 59f2 98bc 5ba6 22bc e46e d83b
00000370: 9ca7 b4bc 00b8 893c 0f0c 1b3d 3f80 1abd
00000380: c7fd 973c fe6b 133d 13bc 593b 756c 2fbd
00000390: 79cf 4cbc 5917 7c3c 267c 983c 1e0a 83bc
000003a0: c4d2 0f3d c97c 173c 7d8b 26bc 56ab a5bb
000003b0: 8197 15bd e477 133c be60 453d 60d4 473d
000003c0: d961 a2bc 1fa0 793c 6f50 773d fd5f b7bc
000003d0: 98c5 88bc de89 013c 475b 02bc b107 2f3d
000003e0: d2f0 ea3c df9c bbbc d1e8 033c 5ca8 5fbc
000003f0: 0549 2fbd 4af5 053d f649 f6bc 083f 413d

sequential/dense_1/MatMul f4 [64, 64]
-0.0016854467 0.008283402 0.09379783 -0.06624352 -0.19331364 -0.0071624434 0.12453768 -0.042256996
-0.10671047 -0.10199697 -0.106884755 -0.22873512 0.11281866 -0.16318733 0.020824714 0.09457845
0.06020535 -0.021605553 -0.16677098 0.06662807 -0.13960056 -0.1369914 -0.13217509 -0.11731169
0.037654847 0.1008716 0.079026036 -0.12597969 0.1348622 -0.21540366 -0.045329403 -0.08625328
0.052396666 -0.026893321 -0.091900855 -0.11798195 -0.18680522 0.07170198 -0.054219935 -0.00021105015
0.010768193 -0.067749254 -0.18536557 0.15256889 -0.21060705 -0.018730102 -0.08528675 -0.022067815
-0.1786805 0.043343347 -0.019616487 -0.031048741 -0.00016176757 -0.19484447 -0.18390942 -0.1813214
0.046215795 -0.16038398 0.118205614 -0.14858092 -0.075042576 0.11077837 0.030088888 -0.06404436
-0.15433761 -0.1792854 -0.16573532 -0.0028062488 -0.08305139 0.069347754 -0.11875245 -0.18177179
-0.064378045 0.15090044 -0.24136132 -0.14817372 -0.2321191 -0.04317374 -0.072980285 -0.0814035
-0.16517453 -0.121804416 -0.110581085 0.06829021 -0.028490806 -0.1929883 -0.13350028 0.09491118
0.046858538 0.08312357 -0.06337693 -0.21633387 -0.05423879 -0.07009697 -0.14180686 0.007804433
0.13248773 0.11511758 0.026171714 -0.16752149 0.10246452 -0.010906444 -0.17458186 0.018762494
-0.2086493 -0.14429726 0.08198572 -0.2046259 0.009581414 0.07818973 0.10828673 -0.24841999
0.12276402 -0.05053068 0.12672903 0.12368667 0.12434112 0.10454723 0.038176596 0.05997261
-0.16132714 0.06660092 -0.013645778 0.021379355 -0.1543741 -0.023526108 0.070941105 -0.15125078
0.07191606 -0.081373505 -0.16872172 -0.04178718 -0.012319336 0.072341464 0.045155503 -0.018162828
0.0060368734 -0.21703453 -0.22202894 0.08232047 0.07188669 0.057144746 0.12840357 0.033648647
-0.2532464 0.03167106 -0.2162191 -0.0674992 0.015554293 0.096981905 -0.23039202 0.087659374
0.03513243 -0.07688962 0.051911946 0.07577819 -0.14597264 0.033160742 -0.093194015 -0.16579303
0.06600363 -0.048497014 0.08929025 -0.21429445 -0.2751645 0.118046574 -0.17157888 -0.030094428
-0.2027738 0.027314289 0.06989196 -0.013848295 -0.09080274 -0.12677714 -0.054584473 -0.14844552
0.05168057 -0.03774372 -0.09325722 -0.15193102 0.0016566829 -0.18326236 -0.14485556 0.061280813
-0.09043653 0.14224732 0.10517513 -0.18360478 0.0514824 0.06072458 -0.010933624 0.082169645
0.07488123 0.15192036 0.104161 -0.27722093 -0.053309202 0.010012462 0.025132716 -0.074039675
-0.14732462 0.052063864 0.09725084 -0.13056326 0.04067837 -0.04648002 -0.046665307 0.11212346
-0.000685589 0.017544791 -0.20306398 -0.23877892 -0.19715577 0.11971901 -0.08878823 -0.113099694
-0.20686968 -0.12361507 -0.18465371 -0.23273921 -0.1329887 0.048184466 0.100136854 -0.05791164
-0.09006607 -0.12830094 0.049237408 0.1010679 -0.05966949 0.086194634 -0.22089149 -0.07428323
0.110492386 0.09127944 -0.22382586 -0.005202703 -0.010817647 -0.106558055 -0.19022675 -0.24323975
-0.21914117 0.010357956 -0.21751514 0.06405932 -0.21043642 -0.22568507 -0.119862385 -0.050089635
0.11024178 -0.076229356 0.111236714 -0.1807129 -0.050932325 -0.23046654 -0.076714575 0.018700885
00000000: 35ea dcba 1bb7 073c 1419 c03d afaa 87bd
00000010: 03f4 45be eeb2 eabb 9c0d ff3d ac15 2dbd
00000020: 058b dabd cae3 d0bd 65e6 dabd 8a39 6abe
00000030: 780d e73d 941a 27be 9798 aa3c 59b2 c13d
00000040: e399 763d 21fe b0bc 03c6 2abe 4c74 883d
00000050: 73f3 0ebe 7947 0cbe e858 07be 1c41 f0bd
00000060: f83b 1a3d c595 ce3d 67d8 a13d d200 01be
00000070: 5119 0a3e c792 5cbe 53ab 39bd 8fa5 b0bd
00000080: e39d 563d 624f dcbc 8436 bcbd 85a0 f1bd
00000090: de49 3fbe 7dd8 923d b915 5ebd 584d 5db9
000000a0: 136d 303c 1fc0 8abd 79d0 3dbe 053b 1c3e
000000b0: 60a9 57be df6f 99bc d2aa aebd 90c7 b4bc
000000c0: 05f8 36be cb88 313d c1b2 a0bc ee59 febc
000000d0: 27a0 29b9 4f85 47be c052 3cbe 51ac 39be
000000e0: c64c 3d3d b33b 24be c915 f23d 9925 18be
000000f0: ecaf 99bd c5df e23d f97c f63c b029 83bd
00000100: ae0a 1ebe 9896 37be 85b6 29be 0be9 37bb
00000110: d916 aabd 3206 8e3d 7c34 f3bd 6222 3abe
00000120: a3d8 83bd a585 1a3e 6c27 77be daba 17be
00000130: a1b0 6dbe f3d6 30bd b076 95bd e1b6 a6bd
00000140: 8323 29be 9874 f9bd 5678 e2bd bddb 8b3d
00000150: 8d65 e9bc ba9e 45be 4cb4 08be cb60 c23d
00000160: bdee 3f3d b13c aa3d c4cb 81bd a086 5dbe
00000170: 7e29 5ebd 008f 8fbd d135 11be 54bc ff3b
00000180: ddaa 073e c4c2 eb3d 1066 d63c c18a 2bbe
00000190: ebd8 d13d f1b0 32bc 96c5 32be cdb3 993c
000001a0: 29a8 55be a9c2 13be 21e8 a73d 7489 51be
000001b0: 5dfb 1c3c f021 a03d 6fc5 dd3d cf61 7ebe
000001c0: b46b fb3d 42f9 4ebd 41c5 013e 704f fd3d
000001d0: 8fa6 fe3d dc1c d63d 105f 1c3d d7a5 753d
000001e0: f132 25be 1066 883d 8b92 5fbc c223 af3c
000001f0: 3e14 1ebe d3b9 c0bc 9249 913d 7ce1 1abe
00000200: ba48 933d 27a7 a6bd 63c5 2cbe 0929 2bbd
00000210: 0ad7 49bc c327 943d faf4 383d 36ca 94bc
00000220: f7d0 c53b 4d3e 5ebe 8e5b 63be a297 a83d
00000230: 5439 933d 9c10 6a3d 3a7c 033e 2ad3 093d
00000240: 83a9 81be 83b9 013d 8a68 5dbe 053d 8abd
00000250: 6fd7 7e3c 739e c63d e3eb 6bbe c286 b33d
00000260: 06e7 0f3d 4e78 9dbd 9fa1 543d 9831 9b3d
00000270: da79 15be 8fd3 073d 81dc bebd a6c5 29be
00000280: e92c 873d cea4 46bd cedd b63d 0170 5bbe
00000290: 5de2 8cbe 67c2 f13d 60b2 2fbe 9788 f6bc
000002a0: efa3 4fbe 37c2 df3c 8423 8f3d f6e3 62bc
000002b0: c9f6 b9bd ded1 01be f893 5fbd 1a02 18be
000002c0: 01af 533d 2999 1abd a4fd bebd ce93 1bbe
000002d0: 0e25 d93a 21a9 3bbe 0455 14be 9701 7b3d
000002e0: ca36 b9bd 48a9 113e 0f66 d73d e402 3cbe
000002f0: 36df 523d 56ba 783d f122 33bc 8f48 a83d
00000300: 555b 993d 0391 1b3e 5d52 d53d e7ef 8dbe
00000310: c05a 5abd 4f0b 243c 20e3 cd3c 1da2 97bd
00000320: 44dc 16be eb40 553d 732b c73d 60b2 05be
00000330: 5d9e 263d d561 3ebd 1f24 3fbd fca0 e53d
00000340: 19b9 33ba 18ba 8f3c 01f0 4fbe 7682 74be
00000350: 34e3 49be 3e2f f53d 9bd6 b5bd d0a0 e7bd
00000360: a5d5 53be e629 fdbd dd15 3dbe 3053 6ebe
00000370: 312e 08be 135d 453d 8d14 cd3d c134 6dbd
00000380: 8f74 b8bd 5261 03be 2aad 493d b0fc ce3d
00000390: ff67 74bd d086 b03d 6131 62be ce21 98bd
000003a0: d549 e23d b7f0 ba3d 9b32 65be 707b aabb
000003b0: 803c 31bc 1c3b dabd cdca 42be d713 79be
000003c0: 8b66 60be 6bb4 293c 4abc 5ebe 8831 833d
000003d0: a57c 57be fd19 67be 697a f5bd ca2a 4dbd
000003e0: 71c6 e13d 231e 9cbd 13d0 e33d cd0c 39be
000003f0: 6a9e 50bd 6cff 6bbe 881c 9dbd 9932 993c

sequential/dense_2/MatMul f4 [4, 64]
-0.08286384 -0.030846052 0.02059466 0.043912515 -0.05481537 0.131665 -0.15161206 -0.09459137
0.16039939 0.13837382 -0.049497496 0.21730134 0.09470099 0.051732708 -0.13824795 -0.20323795
-0.1896673 -0.106788084 0.1264612 -0.15842599 0.23290543 -0.13215038 -0.09202286 0.12740153
-0.1346824 0.05681169 0.1690911 -0.1816777 0.012568455 0.14222117 0.24948338 -0.06819291
0.052075088 -0.09634102 0.027890742 -0.13233924 -0.07402767 -0.07375891 0.10432317 0.12753558
-0.14856198 -0.0071676574 0.12559777 0.16028918 0.17046502 0.037539642 0.12179938 -0.18021558
-0.10618832 -0.044710226 -0.13161239 -0.0010024369 -0.0003211587 -0.11357322 0.09732034 -0.17629755
0.044371497 0.033679653 -0.2215478 -0.04437665 -0.032465942 -0.1898405 -0.074499816 0.113320045
0.114070125 -0.119421996 0.15435998 -0.18369508 0.07476879 -0.050282177 -0.07606841 -0.0065173185
0.14967413 0.10114994 -0.10768626 -0.024187673 0.10303854 -0.020879298 -0.16464521 -0.18571392
-0.17604098 -0.105634645 0.09670684 -0.1316997 0.127241 0.08022484 -0.09323604 0.15227382
-0.16715327 0.08664496 -0.0048966375 -0.19675784 -0.043933146 0.2622052 0.24084443 0.04255046
0.07146971 -0.028933426 0.11331618 0.02571006 0.028571373 -0.02573797 0.10801328 0.12668785
-0.04447047 -0.04647956 0.1293908 0.17104946 -0.080834486 0.03371889 0.110771865 -0.13263057
-0.051038772 -0.2105302 -0.11134214 0.06552276 -0.057361446 -0.046899553 -0.07455928 -0.17176771
0.043431263 -0.004275158 -0.23258346 -0.108861774 -0.018102072 -0.17444423 -0.08181575 -0.080623426
-0.03529412 -0.03342115 -0.055508133 -0.05760947 0.20465085 0.04377954 0.21090668 -0.07776678
0.15549149 0.12959887 -0.062810786 0.098709725 0.09260471 0.041194964 -0.15355514 -0.1999382
-0.21981043 -0.10192985 0.12760039 -0.15991469 0.26066118 -0.080763064 -0.08940268 0.1309076
-0.057279248 0.056455985 0.13982822 -0.1706729 0.014951884 -0.081015304 0.25233552 -0.061355032
0.055058707 0.05649334 0.15116113 0.022708356 -0.08463822 -0.073914565 0.10697754 0.11475524
-0.14394149 -0.013494372 0.11071121 0.16872613 0.15282981 0.042490065 0.098037384 -0.12651725
0.15750755 0.06645401 -0.12659861 0.011598348 0.011806895 -0.1991373 0.10245023 -0.17414822
0.006367156 0.026786901 -0.21448497 -0.05242252 -0.008676863 -0.19293702 0.048619263 0.17735337
0.12755787 -0.06518664 0.033347398 -0.005249733 -0.16707402 0.0992547 0.2038993 0.041880965
0.14674444 0.114231855 -0.13167508 0.05770374 0.11182359 -0.032909576 -0.14731732 -0.22073516
-0.11615478 -0.040409554 -0.097995125 -0.1592348 -0.14917435 0.09653742 -0.07519493 0.13713126
-0.113225885 0.08148799 0.05631444 -0.047088377 0.009391975 0.046716083 0.23001635 0.011627559
0.049724277 0.12558341 -0.11349031 -0.006230604 -0.075592436 -0.12207736 0.09832599 0.11712431
-0.091203175 -0.04359979 0.041587878 0.17179915 -0.03573853 0.057339665 -0.023675459 -0.16952638
0.108914755 0.06403576 -0.12799285 0.06551979 0.029620182 -0.11862393 0.05814666 -0.17097756
-0.13563116 0.019504504 -0.20967567 -0.09930818 -0.09554276 -0.12846154 -0.20630504 0.1999569
00000000: 84b4 a9bd dcb0 fcbc 22b6 a83c 9cdd 333d
00000010: 1586 60bd 31d3 063e 3140 1bbe 1fb9 c1bd
00000020: bd3f 243e deb1 0d3e e3bd 4abd 3e84 5e3e
00000030: 98f2 c13d ade5 533d df90 0dbe 9c1d 50be
00000040: 2538 42be b6b3 dabd 0b7f 013e 6c3a 22be
00000050: c37e 6e3e 6e52 07be 7b76 bcbd 8c75 023e
00000060: 2fea 09be 60b3 683d 3826 2d3e b809 3abe
00000070: eceb 4d3c 6da2 113e 9278 7f3e b9a8 8bbd
00000080: b04c 553d 714e c5bd 207b e43c f083 07be
00000090: d29b 97bd e90e 97bd 63a7 d53d b098 023e
000000a0: a220 18be abde eabb b49c 003e d922 243e
000000b0: 628e 2e3e 2bc3 193d f471 f93d 6f8a 38be
000000c0: 4379 d9bd 1222 37bd 66c5 06be 3364 83ba
000000d0: 3161 a8b9 1499 e8bd e34f c73d 5887 34be
000000e0: e3be 353d adf3 093d 6ddd 62be 4ac4 35bd
000000f0: 02fb 04bd 8c65 42be 5c93 98bd 5714 e83d
00000100: 999d e93d 8593 f4bd 8b10 1e3e 901a 3cbe
00000110: 6120 993d aff4 4dbd c1c9 9bbd 3b8f d5bb
00000120: 2d44 193e b327 cf3d 9d8a dcbd 3a25 c6bc
00000130: df05 d33d 100b abbc c198 28be ca2b 3ebe
00000140: 1644 34be fa56 d8bd 3c0e c63d 49dc 06be
00000150: 774b 023e ec4c a43d 89f2 bebd abed 1b3e
00000160: 3a2a 2bbe ea72 b13d f973 a0bb e37a 49be
00000170: 3ef3 33bd c33f 863e ec9f 763e 6449 2e3d
00000180: b65e 923d cb05 edbc 5012 e83d e79d d23c
00000190: 830e ea3c 6fd8 d2bc 1136 dd3d 76ba 013e
000001a0: ab26 36bd 5a61 3ebd 067f 043e 9727 2f3e
000001b0: 8d8c a5bd d21c 0a3d 5cdc e23d 4fd0 07be
000001c0: 080e 51bd 3b95 57be 5907 e4bd cc30 863d
000001d0: d6f3 6abd bf19 40bd 89b2 98bd e0e3 2fbe
000001e0: fbe4 313d a016 8cbb 5c2a 6ebe ecf2 debd
000001f0: cc4a 94bc 82a1 32be 048f a7bd e51d a5bd
00000200: 9190 10bd 9ee4 08bd 7f5c 63bd e8f7 6bbd
00000210: fe8f 513e 2d52 333d ecf7 573e 3144 9fbd
00000220: 2939 1f3e 91b5 043e f1a2 80bd 5328 ca3d
00000230: 8aa7 bd3d 0dbc 283d 8f3d 1dbe 99bc 4cbe
00000240: fc15 61be 99c0 d0bd ada9 023e adc0 23be
00000250: 6275 853e 1b67 a5bd c118 b7bd a40c 063e
00000260: a59d 6abd 643e 673d 212f 0f3e e0c4 2ebe
00000270: bff8 743c 5aeb a5bd 1f32 813e 6a4f 7bbd
00000280: 3d85 613d 8f65 673d fcc9 1a3e e006 ba3c
00000290: ce56 adbd 8560 97bd 0a17 db3d cc04 eb3d
000002a0: 6665 13be 8017 5dbc 8fbc e23d 8bc6 2c3e
000002b0: 6b7f 1c3e 100a 2e3d d3c7 c83d bd8d 01be
000002c0: a949 213e 0a19 883d 11a3 01be ff06 3e3c
000002d0: b571 413c a6ea 4bbe 6dd1 d13d e953 32be
000002e0: 93a3 d03b 3470 db3c f3a1 5bbe ffb8 56bd
000002f0: 6729 0ebc 4891 45be fe24 473d 1f9c 353e
00000300: 889e 023e 9380 85bd 4897 083d f405 acbb
00000310: 7415 2bbe 0c46 cb3d faca 503e 608b 2b3d
00000320: 2d44 163e 64f2 e93d d5d5 06be c25a 6c3d
00000330: c403 e53d 31cc 06bd 5ada 16be 6608 62be
00000340: 8fe2 edbd 7d84 25bd abb1 c8bd 730e 23be
00000350: 29c1 18be 69b5 c53d cdff 99bd 236c 0c3e
00000360: f9e2 e7bd 2de3 a63d f8a9 663d bedf 40bd
00000370: cce0 193c 5d59 3f3d 6889 6b3e 8481 3e3c
00000380: afab 4b3d f098 003e 9c6d e8bd 182a ccbb
00000390: 35d0 9abd b203 fabd 235f c93d dfde ef3d
000003a0: bbc8 babd b295 32bd 0d58 2a3d 1eec 2f3e
000003b0: 9162 12bd ffdc 6a3d 09f3 c1bc 5398 2dbe
000003c0: b30e df3d 2e25 833d 8f10 03be 3d2f 863d
000003d0: 06a6 f23c 1af1 f2bd 312b 6e3d be14 2fbe
000003e0: e5e2 0abe e9c7 9f3c 38b5 56be 1662 cbbd
000003f0: ecab c3bd 6c8b 03be a141 53be 80c1 4c3e
