student_model.tflite (tflite, 788036 bytes, 6 tensors)

dense_2/bias f4 [4]
0	0xbf6b10d8	-0.91822577
1	0x3f815001	1.010254
2	0x3df31904	0.11870006
3	0x3e0adf8e	0.13561842

dense_1/bias f4 [64]
0	0x3e084b59	0.13309993
1	0xbe860b36	-0.26180428
2	0x3cbf4624	0.023348875
3	0xbeba917b	-0.36439118
4	0xbe0e76c9	-0.139125
5	0xbeff18d0	-0.49823618
6	0xbe26f7a7	-0.1630541
7	0x3e8eab6a	0.27865154
8	0xbf3d0c89	-0.7384725
9	0xbf15d9db	-0.58535546
10	0xbf195cd8	-0.59907293
11	0xbec615fb	-0.38688645
12	0xbd612fc3	-0.05497719
13	0xbf46ac3f	-0.77606577
14	0xbec63c8a	-0.38718063
15	0x3dac2272	0.084050074
16	0xbd1be4d6	-0.03806003
17	0xbd9ceac1	-0.07661963
18	0xbf02a160	-0.5102749
19	0x3eea4c8a	0.4576152
20	0xbe8bd290	-0.27309084
21	0x3df3362b	0.11875566
22	0xbe511a59	-0.20420207
23	0x3eaef8a5	0.34174076
24	0xbe1e8dfc	-0.1548385
25	0x3ec3c825	0.38238636
26	0xbee95fae	-0.4558081
27	0xbd3bd048	-0.04585293
28	0xbecea76e	-0.40362114
29	0xbe129799	-0.14315642
30	0xbe73f99d	-0.23825689
31	0x3eca9537	0.39566967
32	0x3f225808	0.63415575
33	0xbd27cbfa	-0.04096601
34	0x3f448a07	0.76773113
35	0x3d664a8c	0.056223437
36	0xbd49816b	-0.04919569
37	0x3aca6cda	0.0015443817
38	0x3ea89d6e	0.3293261
39	0xbe58b0da	-0.21161214
40	0x3f02a5ef	0.51034445
41	0xbf484d7e	-0.78243244
42	0xbef37add	-0.47554675
43	0x3dba91be	0.09109829
44	0xbf5e13b9	-0.86748844
45	0xbe63ba44	-0.22239023
46	0xbf042c6f	-0.516303
47	0xbd9310b4	-0.0718092
48	0xbdeba8d3	-0.1150681
49	0xbe36b3b5	-0.1784199
50	0x3e9f0b0a	0.3106311
51	0x3ed229de	0.41047567
52	0xbe229839	-0.15878381
53	0xbd8af110	-0.0678426
54	0xbec6e681	-0.38847736
55	0x3f0f63e9	0.56011826
56	0xbf0a66cb	-0.540631
57	0xbef60d25	-0.48056903
58	0x3e8a9315	0.2706534
59	0xbf292ac6	-0.6608089
60	0x3e978581	0.29594043
61	0x3bf58bb5	0.007493461
62	0xbdf7b1cc	-0.12094459
63	0xbe510d12	-0.20415142

dense/bias f4 [64]
0	0xbeba40c4	-0.36377537
1	0x3ea83105	0.328499
2	0x3e973e39	0.2953966
3	0xbedb5dc2	-0.4284497
4	0xbe007dc8	-0.12547982
5	0xbe325a0d	-0.17417164
6	0xbd4b9aef	-0.049708303
7	0xbe8269f2	-0.25471455
8	0xbe75fa6a	-0.24021307
9	0xbd77c030	-0.06048602
10	0xbe42e617	-0.19033085
11	0x3e633908	0.22189724
12	0xbeaeda85	-0.34151092
13	0xbee5b4b9	-0.44864443
14	0xbea6de09	-0.32591274
15	0xbd6decc7	-0.058087137
16	0xbe55f5c5	-0.20894535
17	0x3e739272	0.23786333
18	0xbea02637	-0.31279156
19	0xbdea638b	-0.114447676
20	0x3e180ab6	0.14847836
21	0xbe7aaf3b	-0.24480908
22	0xbddc8555	-0.107676186
23	0xbecd9840	-0.4015522
24	0x3e8361f2	0.25660664
25	0xbdb2a0e7	-0.08722096
26	0x3dfc93c8	0.123328745
27	0xbe994d50	-0.29941797
28	0xbf073a9f	-0.52823824
29	0xbde5f453	-0.11228242
30	0xbd8e0df4	-0.06936255
31	0xbe58dac1	-0.21177198
32	0xbe11f45f	-0.14253376
33	0xbe264bd1	-0.16239859
34	0xbed6843b	-0.4189776
35	0xbdd940df	-0.10608076
36	0xbd25f77b	-0.04051922
37	0xbec0c6af	-0.37651584
38	0xbe1192c7	-0.14216147
39	0xbe8f1cb3	-0.27951583
40	0x3f2cec4d	0.67548066
41	0xbdabb236	-0.083836004
42	0xbe31a7f1	-0.17349221
43	0xbec7b076	-0.39001817
44	0x3eaa62c5	0.3327848
45	0x3e1fd0e8	0.15607035
46	0xbe2e2b16	-0.17008623
47	0x3e0e6309	0.13904966
48	0xbeb98198	-0.36231685
49	0xbed2cecf	-0.41173407
50	0xbf03e82a	-0.5152613
51	0xbeb0412c	-0.34424722
52	0x3e983cf8	0.29734015
53	0x3ebf3153	0.3734232
54	0x3ed3a2f7	0.4133527
55	0x3edc66f5	0.430473
56	0x3d95e9d6	0.07319991
57	0xbef8e6aa	-0.48613483
58	0xbc4ad3e1	-0.012379617
59	0xbea6b779	-0.32561854
60	0xbe179cbd	-0.14805885
61	0xbf005a6a	-0.5013796
62	0x3d01a0ee	0.031647615
63	0xbcb9fc6f	-0.022703378

sequential/dense/MatMul f4 [64, 3000]
0	0xbd19e885	-0.037575264
1	0x3baccc52	0.0052733803
2	0x3ca810df	0.020515857
3	0xbc952c51	-0.018209608
4	0x3ce6ea4b	0.028187891
5	0xbd41778f	-0.04723316
6	0x3d058c76	0.032604657
7	0xbd5263a5	-0.05136456
8	0x3ced1ed8	0.028945372
9	0x3afa9bd6	0.0019119929
10	0xbd44a319	-0.048007105
11	0xbd72e475	-0.059299905
12	0x3cded01e	0.027198847
13	0xbcedc094	-0.029022492
14	0xbc6435ce	-0.013928844
15	0xbd3110c2	-0.043228872
16	0x3c97fd71	0.018553467
17	0xbd0d699e	-0.034524553
18	0x3c7a0cfe	0.015261887
19	0x3ceaf590	0.028681546
20	0xbc9a6df4	-0.018851258
21	0xbd0aeda2	-0.03391803
22	0x3c9e2be3	0.019308036
23	0xbc6fb230	-0.014629886
24	0xbce6581e	-0.02811819
25	0xbd489887	-0.048973586
26	0xbd214004	-0.03936769
27	0xbc40b7c1	-0.01176256
28	0xbd4a169f	-0.04933798
29	0x3caf1228	0.021370962
30	0x3cac2701	0.021014692
31	0xbcb051fa	-0.021523464
32	0x3bc20694	0.0059211943
33	0x39c6a309	0.00037886974
34	0xbc092b1b	-0.008372094
35	0x3c3bf724	0.011472497
36	0x3c4e513a	0.012592608
37	0x3a77be27	0.0009450637
38	0xbbb4c415	-0.005516539
39	0xbd0d8951	-0.034554783
40	0xbb14e8a6	-0.0022721677
41	0xbca81d47	-0.020521773
42	0x3b947ccc	0.0045314785
43	0x3c04c13d	0.008102712
44	0xbc53c565	-0.0129254805
45	0x3cb50e23	0.022101467
46	0x3d5ec414	0.054386213
47	0xbcead0d8	-0.028664038
48	0x3d56f835	0.052482802
49	0x3d7e8209	0.06213573
50	0x3d0cf586	0.034413837
51	0x3d4975e0	0.04918468
52	0x3c188ba7	0.009310639
53	0x3d27b818	0.04094705
54	0x3cdb1752	0.026744518
55	0x3c48ba42	0.012251439
56	0x3c7abe53	0.015304166
57	0x3d439d6e	0.04775756
58	0x3cd9b88d	0.026577258
59	0x3d33eec7	0.043928888
60	0x3d35f32c	0.04442136
61	0x3d251d90	0.040311396
62	0x3d6aa1c3	0.057283174
63	0x3d0c2f1d	0.03422462
64	0x3d508039	0.050903533
65	0x3be716dd	0.007052286
66	0xbcb08ebc	-0.021552436
67	0x3ca6c7d4	0.020358957
68	0x3cafc01c	0.02145391
69	0xbc183928	-0.009290971
70	0x3d0e949f	0.034809705
71	0xbbe33a8d	-0.00693447
72	0x3cbe44e0	0.023226202
73	0x3c847eeb	0.0161738
74	0xbb013f72	-0.0019721654
75	0xbcea4876	-0.028599005
76	0xbc60f6be	-0.013730703
77	0xbc3cae99	-0.011516237
78	0x3cbbf404	0.022943504
79	0xbc025d8d	-0.007956875
80	0x3d08f12f	0.033433136
81	0x3cf4ee0d	0.029898668
82	0xbcaf5ac9	-0.021405594
83	0xbcc5ef20	-0.024161875
84	0x3d26e143	0.04074217
85	0xbcc0ad2d	-0.023520077
86	0x3cd27997	0.025692744
87	0x3b8c1c1b	0.0042758114
88	0xbc89e88a	-0.016834516
89	0x3c746f1c	0.014919069
90	0x3c797320	0.015225202
91	0x3d4f86ed	0.050665785
92	0x3d065836	0.03279897
93	0x3b80204f	0.0039101015
94	0xbcd360d4	-0.025803007
95	0xbc61e153	-0.013786632
96	0x3cdbe84c	0.026844166
97	0x3bf1d382	0.00737995
98	0x3c2def9f	0.010616212
99	0xbcb0ae94	-0.02156762
100	0xbbd44783	-0.0064782514
101	0xbb63c098	-0.0034752246
102	0x3ca7185b	0.020397356
103	0x3cba8032	0.022766206
104	0x3b062217	0.0020467096
105	0x3c818d84	0.01581455
106	0x3cc567c6	0.024097335
107	0xbb2213e2	-0.002473109
108	0x3aa56981	0.0012619944
109	0xbd2cba2c	-0.042169735
110	0xbc82dd4e	-0.015974667
111	0x3d07ae8e	0.033125453
112	0xbd7b9a42	-0.06142641
113	0x3cbd3873	0.023098206
114	0x3b61592e	0.003438543
115	0x3c81343d	0.01577198
116	0xbd5aa3dd	-0.05337893
117	0x3ceb380c	0.028713249
118	0xbd50116f	-0.050797876
119	0xbca276ad	-0.01983198
120	0xbd665ec7	-0.05624273
121	0xbcfd138f	-0.030893115
122	0xbd8187ce	-0.06324731
123	0xbc9f54be	-0.019449588
124	0xbd4993b1	-0.049213115
125	0xbd1afa49	-0.037836347
126	0x3a2d6aed	0.00066153595
127	0x3b808663	0.00392227
128	0xbca43573	-0.020045018
129	0xbd21d486	-0.03950932
130	0xbccbfd70	-0.024901122
131	0x3c1ee4c7	0.009698099
132	0x3c67efb0	0.014156267
133	0xbbbef3fc	-0.005827425
134	0x3ae953ff	0.0017801522
135	0x3bcc33e6	0.0062317727
136	0xbce41a77	-0.02784465
137	0xbd2774df	-0.04088294
138	0xbba73eac	-0.0051039066
139	0xbbad925b	-0.005296988
140	0xbd2d56a0	-0.04231894
141	0xbd921f16	-0.071348354
142	0xbd8e2b63	-0.06941869
143	0xbbfff47b	-0.0078111268
144	0xbd6625f5	-0.056188542
145	0xba7ee722	-0.00097237725
146	0xbcb6fce6	-0.022337388
147	0xbd3da91f	-0.046303865
148	0xbbb5e72d	-0.00555124
149	0x3bf21203	0.007387401
150	0x3c9d4021	0.019195618
151	0xbcd0d12d	-0.025490368
152	0xbcf2760b	-0.029597303
153	0xbcc5f95b	-0.024166754
154	0x3c85ed04	0.01634837
155	0xbc710736	-0.014711192
156	0xbd3b039e	-0.045657746
157	0xbd8e1db5	-0.0693926
158	0xbd28ea78	-0.04123923
159	0xbd1a46b4	-0.037665084
160	0xbcb6e662	-0.022326652
161	0xbd3093d9	-0.04310975
162	0xbcfe0adb	-0.031011036
163	0xbcf358b8	-0.02970539
164	0xbcea6ccd	-0.028616333
165	0x3ce5c2b2	0.02804694
166	0x3b16af41	0.0022992643
167	0xbd65dda4	-0.056119576
168	0xbc957c18	-0.01824765
169	0x3c0b0ea3	0.008487376
170	0x3a0585f6	0.0005093509
171	0xbcf77e52	-0.030211601
172	0x3b7ad941	0.0038276466
173	0xbd26da7a	-0.0407357
174	0xbd26ab43	-0.04069067
175	0xbbacd999	-0.005274963
176	0xbd256f06	-0.040389083
177	0xbd73317e	-0.05937337
178	0xbd87cb3d	-0.066305615
179	0xbd81bd2a	-0.06334908
180	0xbbbb413f	-0.005714565
181	0xbd966afc	-0.073446244
182	0xbd9ebbc7	-0.077506594
183	0xbd8253d0	-0.06363642
184	0xbd6e6719	-0.05820379
185	0xbd8a4dec	-0.06753144
186	0xbd6129bd	-0.054971445
187	0xbd959a18	-0.07304782
188	0xbd4e1870	-0.050316274
189	0xbcd579aa	-0.02605899
190	0xbd055ef2	-0.03256125
191	0xbcb4e87d	-0.022083515
192	0xbd65e253	-0.056124043
193	0x3b747aee	0.0037304717
194	0xbc9ad277	-0.018899186
195	0xbd0058aa	-0.031334557
196	0x3d09963f	0.03359055
197	0x3be2a63d	0.00691679
198	0x3c9e99fa	0.019360531
199	0xbcaa0f2a	-0.020759184
200	0x3d2852fe	0.041094773
201	0x3c3e809b	0.011627342
202	0xbbdd27dd	-0.006749137
203	0xbca475ff	-0.020075796
204	0x3d35c3aa	0.044376053
205	0xbd0ec6ee	-0.034857683
206	0xbc8db04e	-0.017295983
207	0xbd34af71	-0.044112626
208	0xbb7b2b23	-0.0038325272
209	0xbd1bf59a	-0.03807602
210	0x3d180f12	0.037123747
211	0xbd1620ee	-0.036652498
212	0xbcd1b70a	-0.025599975
213	0xbcb04ce1	-0.021521034
214	0xbd1b27c2	-0.037879713
215	0xbc552584	-0.013009433
216	0x3cb2359c	0.021754079
217	0xbd0c35a4	-0.034230843
218	0xbca7d52f	-0.020487396
219	0xbb78126b	-0.0037852775
220	0xbc82fee2	-0.015990678
221	0x3bf331ff	0.0074217315
222	0x3d33e439	0.043918822
223	0xbd532b92	-0.051555224
224	0x3c914d89	0.017737167
225	0x3cc68bf5	0.024236659
226	0x3c6864d5	0.0141841965
227	0xbd3c3163	-0.045945536
228	0xbc715fec	-0.014732342
229	0x3bd83c9f	0.0065990235
230	0x3c172bbe	0.009226738
231	0xbd13f48b	-0.036121886
232	0x3ca341b3	0.019928789
233	0xbb96f51f	-0.0046068574
234	0xbce87cb5	-0.028379777
235	0xbd12a6ae	-0.03580349
236	0xbd8d83b0	-0.06909883
237	0xbd192147	-0.03738525
238	0x3b814608	0.003945116
239	0xbbb5861f	-0.00553967
240	0xbd7818ad	-0.060570408
241	0xbd071966	-0.032983206
242	0x3cd3b36f	0.025842397
243	0xbd89b330	-0.067236304
244	0xbd343592	-0.0439964
245	0xbced77eb	-0.028987845
246	0xbd05e858	-0.032692283
247	0x3c5761da	0.013145888
248	0x3c5b044d	0.013367725
249	0xbd26e013	-0.040741038
250	0x39990224	0.0002918403
251	0xbcf76cf3	-0.030203318
252	0xbd5b8f5c	-0.053603515
253	0x3cabfddd	0.020995075
254	0xbd03c305	-0.032168407
255	0x3cf2c705	0.029635916

sequential/dense_1/MatMul f4 [64, 64]
0	0xbb29e743	-0.0025925196
1	0x3d03f6e7	0.032217886
2	0x3d9b8f52	0.075956956
3	0xbdc743f9	-0.09729762
4	0xbe1e4b74	-0.1545847
5	0xbd4e9ebd	-0.050444353
6	0x3dd501df	0.104007475
7	0xbdc47820	-0.095932245
8	0xbe0b7957	-0.13620506
9	0xbdfe5ad8	-0.12419671
10	0xbdd70143	-0.104982875
11	0xbe6b55e6	-0.22981986
12	0x3dc464cc	0.09589538
13	0xbe2cac34	-0.16862565
14	0x3c7f9276	0.015598884
15	0x3dd827f3	0.10554495
16	0x3d591bc4	0.053004995
17	0xbcd6f14e	-0.02623811
18	0xbe2f9f76	-0.17150673
19	0x3dd2b8fc	0.10289189
20	0xbe0424d6	-0.12904677
21	0xbe30b8ab	-0.17257945
22	0xbe23b27c	-0.15986055
23	0xbe132cca	-0.14372554
24	0x3bba1361	0.0056785797
25	0x3d9d82e4	0.07690981
26	0x3d948a8c	0.07252988
27	0xbdcfebd2	-0.10152401
28	0x3ddf7a03	0.10911944
29	0xbe4f43d5	-0.2024072
30	0xbd0c288a	-0.03421835
31	0xbdb7bff4	-0.08972159
32	0x3d57478a	0.05255846
33	0xbcf5a558	-0.029986069
34	0xbd8eceb4	-0.06973019
35	0xbe299b69	-0.1656319
36	0xbe7982f1	-0.24366356
37	0x3d892d1a	0.066980556
38	0xbccd2273	-0.02504084
39	0x36a6e912	4.9743185e-06
40	0xbd3cf2cd	-0.04612999
41	0xbde50a8b	-0.111836515
42	0xbe3b66d0	-0.18300939
43	0x3dfad3c4	0.12247422
44	0xbe39a742	-0.1813021
45	0xbdb76209	-0.089542456
46	0xbd995e27	-0.07488661
47	0xbd89f63f	-0.06736421
48	0xbe290f6e	-0.16509792
49	0x3d6b7fad	0.057494808
50	0x3b44555b	0.0029958102
51	0xbd6ee5c0	-0.058324575
52	0x3b47ce02	0.003048778
53	0xbe6a88c3	-0.22903733
54	0xbe52c924	-0.20584542
55	0xbe1eb0a4	-0.1549707
56	0x3c8999be	0.016796943
57	0xbe2cf202	-0.16889194
58	0x3dfab926	0.122423455
59	0xbe22a951	-0.15884902
60	0xbdab7d7e	-0.08373545
61	0x3de8de33	0.11370506
62	0x3c5c60e0	0.013450831
63	0xbd80eeda	-0.06295557
64	0xbe365a21	-0.17807819
65	0xbe57c15c	-0.21069854
66	0xbe6b3afe	-0.22971722
67	0xbcf51c8d	-0.02992084
68	0xbdee2ef4	-0.11630049
69	0x3c963d76	0.018339854
70	0xbda351ca	-0.079745844
71	0xbe23575d	-0.15951295
72	0xbdf04a02	-0.11732866
73	0x3e21b2ba	0.15790835
74	0xbe8cbfef	-0.27490184
75	0xbe2e5b38	-0.17026985
76	0xbe810efa	-0.2520674
77	0xbd07ec0e	-0.033184104
78	0xbd9ac5fa	-0.07557292
79	0xbe00ecb0	-0.12590289
80	0xbe36c728	-0.1784941
81	0xbe13a951	-0.14420058
82	0xbdae02a8	-0.084966004
83	0x3d8f86ac	0.070081085
84	0xbc6148d0	-0.01375027
85	0xbe56a05d	-0.20959611
86	0xbe062f45	-0.1310397
87	0x3d9347c7	0.07191425
88	0x3d31da4a	0.043421067
89	0x3d65d7fe	0.05611419
90	0xbdaa1617	-0.083049946
91	0xbe6b07e5	-0.2295223
92	0xbd67f0a7	-0.05662599
93	0xbdca4952	-0.09877266
94	0xbe4bb335	-0.19892581
95	0x3b6bd38f	0.0035984253
96	0x3df6f10d	0.120576955
97	0x3df4d013	0.119537495
98	0x3bcd58d2	0.0062666917
99	0xbe6119d7	-0.21982513
100	0x3d7358d4	0.059410885
101	0xbd9b1622	-0.07572581
102	0xbe2782c4	-0.16358477
103	0x3c91cf14	0.017798938
104	0xbe7f9d3c	-0.24962324
105	0xbe22a771	-0.15884186
106	0x3dc0418b	0.09387501
107	0xbe69218e	-0.22766706
108	0xbdb18195	-0.08667294
109	0x3ce1c6e2	0.027560655
110	0x3e046511	0.12929179
111	0xbe7d6dbd	-0.24748893
112	0x3d932d2c	0.0718635
113	0xbda441af	-0.08020341
114	0x3dcdb95c	0.1004512
115	0x3da7a5da	0.081859306
116	0x3db89d65	0.090143956
117	0x3d9554cc	0.07291564
118	0x3bc66c51	0.006055393
119	0x3ccb44fb	0.024813166
120	0xbe0e945f	-0.13923787
121	0x3d311403	0.043231975
122	0xbd1e701f	-0.038681146
123	0xbce0daad	-0.027448023
124	0xbe2d8097	-0.16943584
125	0xbc8a247d	-0.016863102
126	0x3d059b6a	0.032618918
127	0xbe1c686c	-0.15274209
128	0x3d5da75d	0.05411469
129	0xbd80ad49	-0.062830515
130	0xbe144858	-0.14480722
131	0xbd9b2c03	-0.07576754
132	0xbbfe9648	-0.0077693798
133	0x3d9b7566	0.07590751
134	0x3d054611	0.032537524
135	0xbcdf0168	-0.02722235
136	0x3c200f22	0.009769233
137	0xbe7912a4	-0.24323517
138	0xbe67321f	-0.22577713
139	0x3d9793d3	0.07401242
140	0x3dd0156f	0.10160338
141	0x3dbb235a	0.09137602
142	0x3df2d9ed	0.11857972
143	0x3c0d5b06	0.008627659
144	0xbe477d68	-0.19481432
145	0x3d1b4493	0.037907194
146	0xbe669621	-0.22518207
147	0xbda163c2	-0.078803554
148	0xbb37f0de	-0.0028067152
149	0x3daf6671	0.08564461
150	0xbe641a61	-0.22275688
151	0x3dae0760	0.084975004
152	0x3cd83069	0.026390271
153	0xbdb7def0	-0.08978069
154	0x3d5ef0b0	0.054428756
155	0x3d9ecf99	0.0775444
156	0xbe05f617	-0.13082157
157	0xbb55822e	-0.0032578814
158	0xbdee9da7	-0.116511635
159	0xbe2ef5ee	-0.17086002
160	0x3d737ddc	0.0594462
161	0xbd81ea99	-0.06343574
162	0x3daf422c	0.08557543
163	0xbe6690d7	-0.2251619
164	0xbe6a9182	-0.2290707
165	0x3e121bf8	0.14268482
166	0xbe155bd8	-0.14585817
167	0xbcb89600	-0.022532463
168	0xbe4cc3e6	-0.19996604
169	0x3d346279	0.044039223
170	0x3db34f0b	0.087553106
171	0xbc9ac70f	-0.018893747
172	0xbdb19354	-0.08670679
173	0xbe1d3d4c	-0.15355414
174	0xbd88d79d	-0.0668175
175	0xbe582b2b	-0.21110217
176	0x3d1ac550	0.037785828
177	0xbd2630d8	-0.040573925
178	0xbda559cd	-0.08073769
179	0xbe268c2a	-0.16264406
180	0xbc2d0bc9	-0.010561892
181	0xbe602954	-0.21890765
182	0xbe0c0065	-0.13672026
183	0x3d0fc41f	0.035099145
184	0xbdd8bf8f	-0.10583412
185	0x3e282775	0.16421302
186	0x3ddacfdd	0.10684178
187	0xbe436a93	-0.19083624
188	0x3d34aa8f	0.04410797
189	0x3d6ac79f	0.05731928
190	0xbc9566fe	-0.018237587
191	0x3d41ccb9	0.04731438
192	0x3db71859	0.08940191
193	0x3e10ee36	0.1415337
194	0x3df98afd	0.12184713
195	0xbe73604d	-0.23767205
196	0xbdad42c6	-0.08460002
197	0x3d1d3150	0.038377106
198	0x3cd529f1	0.026020976
199	0xbdcc1b33	-0.09966125
200	0xbe1febc5	-0.15617283
201	0xbcbadd8e	-0.022810724
202	0x3dba05aa	0.090831116
203	0xbe01de67	-0.12682496
204	0x3c6ee7fe	0.014581678
205	0xbcec68d4	-0.02885858
206	0xbd3024b0	-0.043003738
207	0x3dc00b38	0.0937714
208	0xbc15b1df	-0.009136646
209	0x3d1184aa	0.03552691
210	0xbe5dd16a	-0.21661916
211	0xbe8d2551	-0.27567533
212	0xbe8c24ca	-0.27371818
213	0x3c96ca07	0.018406881
214	0xbdab7fc2	-0.08373977
215	0xbe2bdd9b	-0.16783755
216	0xbe79bea5	-0.24389131
217	0xbe03ec91	-0.12883212
218	0xbe7c907d	-0.24664493
219	0xbe826612	-0.25468498
220	0xbde4a787	-0.11164766
221	0x3c23340d	0.00996114
222	0x3d161933	0.036645126
223	0xbd1f0906	-0.038826965
224	0xbe02a104	-0.12756735
225	0xbe17453b	-0.14772503
226	0x3c47f850	0.012205198
227	0x3def6209	0.116886206
228	0xbd9078a5	-0.07054261
229	0x3d8a7ecd	0.067624666
230	0xbe4ac2dc	-0.19800895
231	0xbddcb8b2	-0.10777415
232	0x3d89ebfb	0.06734463
233	0x3e1c471d	0.15261503
234	0xbe6ecf98	-0.23321378
235	0x3c86bbd0	0.016446978
236	0xbce065e9	-0.027392345
237	0xbd8801c1	-0.066409595
238	0xbe5696d9	-0.20955981
239	0xbe803c20	-0.25045872
240	0xbe727808	-0.23678601
241	0xbd846f96	-0.06466596
242	0xbe5e93c9	-0.21736063
243	0x3cf9fd90	0.030516416
244	0xbe5ec016	-0.21752962
245	0xbe695e2e	-0.22789833
246	0xbe113163	-0.14178996
247	0xbdc0f90c	-0.09422502
248	0x3db67c15	0.089103855
249	0xbd85b449	-0.06528527
250	0x3d9623c7	0.07331043
251	0xbe092851	-0.13394286
252	0xbd0b84d3	-0.034062218
253	0xbe483ec7	-0.19555198
254	0xbdeda2b0	-0.11603296
255	0x3a4a6e58	0.0007722131

sequential/dense_2/MatMul f4 [4, 64]
0	0xbdc4a3ee	-0.096015796
1	0xbd368561	-0.044560794
2	0x3d6f2702	0.05838681
3	0x3cc687ad	0.024234617
4	0xbbfdf629	-0.007750292
5	0x3ddcfcc2	0.10790397
6	0xbdd4198e	-0.10356437
7	0xbd876615	-0.066112675
8	0x3e21e3d0	0.1580956
9	0x3df21e7c	0.11822221
10	0xbd1d600a	-0.038421668
11	0x3e31c71c	0.1736111
12	0x3dbd6503	0.09247782
13	0x3cb330a1	0.021873774
14	0xbdf4a2a5	-0.119450845
15	0xbe40f932	-0.1884506
16	0xbe54ec24	-0.20793205
17	0xbdd0c309	-0.1019345
18	0x3dccc91c	0.09999296
19	0xbe1ae116	-0.15124926
20	0x3e86c6af	0.2632346
21	0xbe03e10f	-0.12878822
22	0xbd9b9831	-0.075973876
23	0x3e05a86a	0.13052526
24	0xbdd62626	-0.10456495
25	0x3d8e8576	0.069590494
26	0x3e0992f4	0.13434964
27	0xbe4b4fd5	-0.19854672
28	0x3a47ae5c	0.0007617229
29	0x3e09127d	0.13385959
30	0x3e81a4bf	0.25321004
31	0xbd7a09e8	-0.061044604
32	0x3d81f97e	0.06346415
33	0xbd46c233	-0.048525047
34	0x3d0461a9	0.0323197
35	0xbe1cf7a5	-0.15328844
36	0xbd19d810	-0.03755957
37	0xbd9e9d6a	-0.07744868
38	0x3de9a3d4	0.11408201
39	0x3e182de5	0.14861257
40	0xbdd7fd1d	-0.105463244
41	0xbc96ba49	-0.018399375
42	0x3e30b88d	0.172579
43	0x3e30c31c	0.17261928
44	0x3e1cd1ad	0.1531436
45	0x3d2d86dc	0.04236494
46	0x3e10c28f	0.14136718
47	0xbe270bde	-0.1631312
48	0xbdab5085	-0.08364967
49	0xbcf83aa7	-0.030301405
50	0xbe032609	-0.12807478
51	0xbada5550	-0.0016657505
52	0x3ac93b8a	0.0015352827
53	0xbdbd360d	-0.09238825
54	0x3e16dc0a	0.14732376
55	0xbe30f22b	-0.1727988
56	0x3d2c74fe	0.04210376
57	0x3d8e3cb4	0.06945172
58	0xbe628e19	-0.22124518
59	0xbd912aeb	-0.07088264
60	0xbd0e8b54	-0.034800842
61	0xbe44cc21	-0.19218494
62	0xbdaa592c	-0.083177894
63	0x3dce93cf	0.10086786
64	0x3e026c30	0.12736583
65	0xbe455a48	-0.19272721
66	0x3dbc6ed3	0.092008255
67	0xbe10a9f1	-0.14127328
68	0x3d284365	0.041079897
69	0xbc9e2352	-0.019303951
70	0xbda825b2	-0.08210315
71	0xbc5bfa8f	-0.013426437
72	0x3e1adced	0.15123339
73	0x3dee9a78	0.11650556
74	0xbe063fd0	-0.1311028
75	0xbcf2068e	-0.029544141
76	0x3ddfa80b	0.109207235
77	0x3c8e485e	0.017368492
78	0xbe2bfabe	-0.1679487
79	0xbe4945ef	-0.19655584
80	0xbe3657ea	-0.17806974
81	0xbdd1fbdc	-0.102531165
82	0x3e079dc2	0.13243774
83	0xbe15d55a	-0.14632168
84	0x3dcc549d	0.09977076
85	0x3d924e3d	0.07143829
86	0xbdb1c42a	-0.086799935
87	0x3e0a4091	0.13501193
88	0xbe39eb39	-0.18156137
89	0x3d8f89d9	0.07008714
90	0x3cc99484	0.02460695
91	0xbe3bc204	-0.1833573
92	0xbbb4ff71	-0.005523615
93	0x3e5cd23c	0.21564573
94	0x3e8064c5	0.2507688
95	0x3ceb4702	0.028720383
96	0x3d85b513	0.06528678
97	0xbd49d806	-0.04927828
98	0x3e042986	0.12906465
99	0x3d215952	0.039391823
100	0xbc602da3	-0.013682756
101	0x3d53c8be	0.051705115
102	0x3dc018a3	0.09379699
103	0x3e018714	0.12649184
104	0xbddb9fb5	-0.10723821
105	0xbce5e576	-0.028063517
106	0x3e42ec3e	0.19035432
107	0x3e2a3b33	0.16624145
108	0xbcde1540	-0.027109742
109	0x3d47fe4d	0.048826504
110	0x3dd71eb1	0.10503901
111	0xbe12134a	-0.1426517
112	0xbc6ecccd	-0.0145751955
113	0xbe69ac92	-0.22819737
114	0xbdf21b51	-0.118216164
115	0x3d8009e1	0.06251884
116	0xbd9684b5	-0.073495306
117	0xbd9e979b	-0.0774376
118	0xbe1a74bf	-0.15083598
119	0xbe1cfc07	-0.15330516
120	0x3ceed7c0	0.029155612
121	0xbdd45b29	-0.1036895
122	0xbe6310ff	-0.22174452
123	0xbd9c02a0	-0.07617688
124	0xbb90f185	-0.0044233226
125	0xbe36c3c0	-0.1784811
126	0xbdc3529c	-0.09537241
127	0xbd7e6f25	-0.062117714
128	0xbcda0741	-0.026614787
129	0x3cba6194	0.022751607
130	0xbcbd1d6d	-0.02308532
131	0xbd93d40d	-0.0721818
132	0x3e3b0873	0.18264942
133	0x3d2d9861	0.042381648
134	0x3e2f5607	0.1712266
135	0xbd63a4bd	-0.05557703
136	0x3e19f935	0.15036471
137	0x3de6ab52	0.112631455
138	0xbd9392d3	-0.07205739
139	0x3de94511	0.113901265
140	0x3dc94d43	0.0982919
141	0x3c8b3657	0.016993685
142	0xbe2886bb	-0.16457646
143	0xbe53a822	-0.20669606
144	0xbe6a66c1	-0.2289076
145	0xbde18537	-0.11011737
146	0x3df2e3eb	0.11859878
147	0xbe1719e3	-0.14755969
148	0x3e839c0d	0.25704995
149	0xbd7985ed	-0.060918737
150	0xbdbdd09a	-0.09268303
151	0x3e06bacf	0.131572
152	0xbd9015b1	-0.07035387
153	0x3d96a541	0.073557384
154	0x3e023b04	0.12717825
155	0xbe35b651	-0.1774533
156	0xbb6f1a31	-0.0036484117
157	0xbd728455	-0.059208233
158	0x3e81cf19	0.25353315
159	0xbd853fc1	-0.06506301
160	0x3d6ba47b	0.057529908
161	0xbbcb9186	-0.006212416
162	0x3e001fd3	0.1251214
163	0x3d4d1263	0.050066363
164	0xbd73f13c	-0.05955623
165	0xbe2609ee	-0.16214725
166	0x3ddaa670	0.10676277
167	0x3d90a8e2	0.07063462
168	0xbddab5bb	-0.106791936
169	0xbca82cc8	-0.020529166
170	0x3da2770f	0.07932865
171	0x3e2c006f	0.1679704
172	0x3e125a27	0.14292203
173	0x3d22e5ed	0.039770056
174	0x3df5cee7	0.12002354
175	0xbe1329f3	-0.14371471
176	0x3e1fca65	0.15604551
177	0x3d4a5b8f	0.049403723
178	0xbe0564a7	-0.13026677
179	0x3cc21e24	0.023696013
180	0x3b44dbd7	0.0030038261
181	0xbe0bcf3d	-0.13653274
182	0x3e0d1d1a	0.13780633
183	0xbe3cc06e	-0.18432781
184	0x3c135416	0.008992216
185	0x3d4eae27	0.050459053
186	0xbe63b75e	-0.22237918
187	0xbd92f353	-0.07175317
188	0x3c2140e7	0.009842134
189	0xbe625631	-0.22103192
190	0x3ced0b7c	0.02893614
191	0x3e38e527	0.18056165
192	0x3e07671d	0.13222928
193	0xbd0ec0bb	-0.03485177
194	0x3cfdca95	0.030980388
195	0x3c5282f1	0.012848602
196	0xbdf7e9a5	-0.12105111
197	0x3d921fc3	0.07134964
198	0x3e4889f1	0.1958387
199	0xbc6af900	-0.014341593
200	0x3e1a8e40	0.15093327
201	0x3df3abc5	0.11897997
202	0xbdde0199	-0.108401485
203	0x3d7f15a8	0.062276512
204	0x3de20993	0.110369824
205	0x3c529aad	0.01285426
206	0xbe12c90f	-0.1433451
207	0xbe494303	-0.19654469
208	0xbda80c9f	-0.08205532
209	0xbd1b824c	-0.037966058
210	0xbdaa48e6	-0.083146855
211	0xbe173ff5	-0.14770491
212	0xbe1b87d0	-0.15188527
213	0x3da1f4b6	0.07908003
214	0xbdb9514b	-0.090487085
215	0x3e074083	0.13208203
216	0xbe12cf4f	-0.14336894
217	0x3d8d9b24	0.06914356
218	0x3d8e1a31	0.06938589
219	0x3abc9d7d	0.0014390197
220	0xbb82764c	-0.0039813872
221	0x3db41fe3	0.087951444
222	0x3e6e496b	0.23270194
223	0x3c5035bf	0.012708127
224	0x3d6c9d07	0.05776694
225	0x3d39f837	0.04540273
226	0xbe02c810	-0.1277163
227	0x3cc346e3	0.023837512
228	0xbd83e0dd	-0.06439374
229	0xbe0b36ae	-0.13595077
230	0x3da2d0b4	0.07949963
231	0x3e04e564	0.1297813
232	0xbddda47d	-0.10822389
233	0xbcbc379b	-0.022975734
234	0xbda13611	-0.078716405
235	0x3e35d574	0.17757207
236	0xbb966a3a	-0.0045903
237	0x3d2f5904	0.0428095
238	0xbd46758d	-0.04845195
239	0xbe2b6e28	-0.1674124
240	0x3d8ca296	0.06866948
241	0x3d025a32	0.0318243
242	0xbe04339d	-0.12910314
243	0x3d7ac890	0.061226428
244	0x3b6bbc62	0.003597044
245	0xbe098b67	-0.13432084
246	0x3dadf685	0.084942855
247	0xbe5c32d3	-0.21503763
248	0xbe0b0bc7	-0.13578711
249	0x3e09e457	0.13466011
250	0xbe65bbdf	-0.22434948
251	0xbd9d80d5	-0.076905884
252	0xbe125a93	-0.14292364
253	0xbdeda2ab	-0.11603292
254	0xbe0c124f	-0.13678859
255	0x3e3f4d6c	0.18681878
