student_model.tflite (tflite, 788036 bytes, 6 tensors)

dense_2/bias f4 [4]
000000 e1 60 1c bf 23 9c 49 3f f0 5e 23 3d 7f 0a a1 3c
       -0.61085325 0.7875387 0.03988546 0.019658325

dense_1/bias f4 [64]
000000 12 f1 2d 3e 8b 84 7d be db 05 23 3e ae 76 56 be
       0.16986492 -0.24757592 0.15920202 -0.2094371
000010 19 a1 e4 bd 6e 87 a1 be 3c 94 0b be 17 4b df 3e
       -0.111635394 -0.31548637 -0.13630766 0.43611977
000020 b9 c9 de be 0b 96 ba be 24 84 b9 be fd d9 62 be
       -0.43513277 -0.364426 -0.36233628 -0.22153468
000030 d5 5e 14 bd 25 15 e1 be 24 c7 50 be d5 0e ce 3e
       -0.03622325 -0.43961444 -0.20388466 0.4024569
000040 0d 9f d9 bd b7 10 8c 3d f2 e5 95 be 1b 1c 05 3f
       -0.1062604 0.068391256 -0.29276997 0.5199601
000050 ab b1 39 be de 7e 50 3e 7a 3c 0b be 10 8a fc 3e
       -0.18134181 0.20360896 -0.13597289 0.49324083
000060 9f f2 df bd 28 17 09 3f 9a dc 8f be 5e 19 13 be
       -0.10934948 0.5355096 -0.28097993 -0.14365146
000070 c7 74 94 be 11 cc 07 be a6 2e e2 be a3 8c f1 3e
       -0.28995344 -0.13261439 -0.44176215 0.4717761
000080 8a 43 01 3f 98 71 81 3b 71 7f 3d be aa 1f 59 3d
       0.5049368 0.003950309 -0.18505646 0.053008713
000090 2e 41 4f 3e 30 12 b3 3e 5f 9a ee 3e 9e 0e 48 be
       0.20239708 0.34974813 0.4660215 -0.19536826
0000a0 bd 5e fc 3e 86 6f ef be 86 cd b8 be 85 07 1e 3d
       0.4929103 -0.46764773 -0.36094302 0.03858139
0000b0 35 2e ba be fb a2 23 bd 8d e8 d7 be 12 7e 00 bc
       -0.36363378 -0.039950352 -0.4216961 -0.0078425575
0000c0 44 4a 73 bd 33 8a 20 be 35 99 47 3e 88 ae d1 3e
       -0.059396997 -0.15677719 0.19492038 0.4095347
0000d0 a7 4c 99 bd 44 40 b8 bd 39 36 a3 be df 26 66 3e
       -0.074853234 -0.08996633 -0.31877306 0.22475766
0000e0 62 4b 94 be e2 a4 61 be 8e 7c 92 3e e6 f2 cb be
       -0.28963763 -0.22035554 0.28610653 -0.39833754
0000f0 39 61 1e 3e 12 37 d2 bc fd e5 c3 bd eb 7a 71 be
       0.15466775 -0.025661025 -0.09565351 -0.23582046

dense/bias f4 [64]
000000 1f 98 34 be c8 72 08 bc c4 8f 8a 3d 44 2f a8 be
       -0.17636155 -0.008328147 0.06765702 -0.3284856
000010 a5 9a 95 bd d6 6f 3b be 3d 19 48 be c3 12 6c be
       -0.07304887 -0.18304381 -0.19540878 -0.23054032
000020 dd 62 58 be 8b a3 1a 3e a8 7c cb bc f6 11 03 bc
       -0.21131463 0.15101449 -0.024839714 -0.007999888
000030 8a 74 4b be 99 89 89 3c d1 c5 8b be a0 25 8f 3d
       -0.19868675 0.016789244 -0.2729936 0.06989598
000040 1a cc 84 be c7 95 b6 3e 5d bf 8d be f5 b0 96 bc
       -0.25936967 0.35661146 -0.2768506 -0.018394927
000050 aa 6f 21 be 6d a9 6c be e6 ee d5 bd 7c bd a4 be
       -0.15765253 -0.23111506 -0.10445957 -0.32175815
000060 03 fe 94 3e 9a e0 b6 be 06 80 7d be 4a 09 81 be
       0.29100046 -0.35718232 -0.24755868 -0.252024
000070 3b 90 cc bd 92 33 96 be 4b f5 fb bd af a3 5d 3d
       -0.09988447 -0.2933622 -0.12302645 0.05411118
000080 31 cd 92 be e3 00 86 3d 4c 6f 76 be fc 4b fe 3d
       -0.28672174 0.06543138 -0.24065894 0.124168366
000090 c2 0f 04 bd d5 81 6d be ac 72 2f be ea b7 7f be
       -0.03224159 -0.23194058 -0.17133588 -0.24972501
0000a0 9a 7f bf bd 3f 28 7e 3d 8a dd 8c 3d f7 57 61 be
       -0.0935051 0.0620501 0.06878193 -0.22006212
0000b0 32 12 51 3d 53 b8 86 3e 47 27 02 be fe dd 82 3e
       0.051042743 0.26312503 -0.12710296 0.25559992
0000c0 22 c0 ae 3c 49 ec 80 be a3 a5 02 3e 03 d7 84 be
       0.02133185 -0.2518027 0.12758498 -0.2594529
0000d0 44 a7 a1 be 50 5b 49 3e cb 7e fb 3d 86 63 2d be
       -0.31572926 0.19663739 0.12280043 -0.16932496
0000e0 ff 57 88 be 62 4a 19 be 70 13 10 be 81 6a 85 be
       -0.26629636 -0.14969781 -0.14069915 -0.2605782
0000f0 1c 88 1f be 44 16 87 be 6f 66 bf bc 24 8f 11 be
       -0.15579265 -0.26384175 -0.023364274 -0.1421476

sequential/dense/MatMul f4 [64, 3000]
000000 c8 80 16 bd 42 5a 18 3c 72 40 7b 3b 96 52 0b bc
       -0.03674391 0.009298863 0.0038337973 -0.008503577
000010 c7 57 f9 3c b6 0d e7 bc b8 8c 8d 3c 84 de 13 bd
       0.030437363 -0.02820478 0.017279014 -0.03610088
000020 00 23 d3 3c fb bf e6 3c 4d 78 55 bd 39 f2 2b bd
       0.025773525 0.028167715 -0.05211668 -0.04197905
000030 5f 5c e7 3c 5e e1 db bb 90 58 96 bc 6d df 03 bd
       0.028242288 -0.0067102155 -0.018352777 -0.032195497
000040 1b 03 c6 3c a2 bb a8 bc 97 0e 72 3c 1b 50 26 3d
       0.024171403 -0.020597283 0.014773986 0.04060374
000050 f5 4c 42 bc 81 38 80 bc 17 de ad 3c 52 7b 03 3b
       -0.011859168 -0.015651943 0.021224065 0.0020062518
000060 f4 b9 d1 bc 11 b0 04 bd 3d 7a 2f bd f5 f7 13 3c
       -0.025601365 -0.032394473 -0.042841185 0.0090312855
000070 fb 2d 3d bd 2a f7 d2 3c 3e 63 12 3c b8 ca d1 bc
       -0.04618643 0.025752623 0.008934794 -0.02560936
000080 27 5b a5 bb d9 c1 81 bb 14 80 3e bc 1f 2a 24 3c
       -0.0050462666 -0.003959876 -0.011627216 0.010019808
000090 f5 4d 66 3c 76 0b 8f ba af 4f dc b9 d8 db 9d bc
       0.014056672 -0.001091345 -0.0004202104 -0.019269869
0000a0 03 af a8 3b c4 e9 22 bc 31 6a 8c bb 9b 1f 98 3c
       0.005147816 -0.009943429 -0.00428512 0.018569758
0000b0 f7 86 c3 bc 6b 41 80 3c d2 f6 e5 3c f4 c1 0e bd
       -0.023868067 0.015656194 0.028071795 -0.034852937
0000c0 ff 23 e8 3c 43 a2 3d 3d ad ee 46 3c 19 81 c5 3c
       0.028337477 0.046297323 0.012141866 0.02410941
0000d0 91 71 96 bc 20 e4 2d ba 9a 58 be bb 25 7b cd bc
       -0.0183647 -0.00066334195 -0.005808902 -0.025083134
0000e0 30 9e 01 bc 2d ce b5 3b a4 52 56 bc 84 c1 3b 3c
       -0.00791125 0.0055482597 -0.0130812265 0.011459712
0000f0 68 a7 80 3c fb 8a 87 3c 3b b4 9e 3c 3f 36 10 3c
       0.015704826 0.016545763 0.01937305 0.008801996
000100 d2 4f 9f 3c c8 98 5d bc 2b bc 3d bd 97 62 fe 3a
       0.019447241 -0.013525195 -0.04632203 0.0019408044
000110 c4 27 e5 39 42 49 ed bc 33 35 a9 3c da b1 cb bc
       0.0004370791 -0.028965596 0.02065525 -0.02486508
000120 29 ce ac 3c e7 69 7e 3c b1 09 c7 3a e8 df b5 bc
       0.021094399 0.015528179 0.0015185383 -0.022201493
000130 c3 0f f3 bb a5 f7 e8 3a 4a ea 44 3d 72 44 73 3c
       -0.0074176504 0.0017773999 0.048074998 0.014847862
000140 96 69 1d 3d 9e 78 01 3d 94 69 df bc dd 86 f4 bc
       0.038430773 0.03160917 -0.027272023 -0.029849464
000150 fb 82 0d 3d ec d6 07 bd 44 e8 cf 3c 4d e4 18 bc
       0.03454874 -0.03316395 0.025379308 -0.009331775
000160 76 39 99 bc 73 3b 4b 39 70 da c8 3c 9a ce 0e 3d
       -0.018704157 0.00019381735 0.024518222 0.034865
000170 0b 42 12 3d 05 d4 0b bc d7 95 b2 bc cb c2 c2 bc
       0.035707515 -0.008534436 -0.021799965 -0.023774525
000180 99 b5 54 3c 27 96 8c bb 13 8c 20 3c a9 b9 0c bd
       0.012982749 -0.0042903605 0.009799021 -0.034356747
000190 94 97 ae bc fa 05 81 bc 50 b7 b5 3c a2 39 04 3c
       -0.021312512 -0.01574992 0.022182137 0.008070381
0001a0 76 10 55 3b 10 97 f2 3b da 3f 1c 3d 52 1f b2 bc
       0.0032511032 0.007403262 0.03814683 -0.02174345
0001b0 34 bd 5e bb 72 92 74 bd b9 08 05 bc 8c 4a 40 3c
       -0.0033987286 -0.059709974 -0.008119755 0.011736523
0001c0 aa 08 87 bd 5f 18 88 3c c0 f4 d3 3b 90 de 11 b9
       -0.065934494 0.016613184 0.0064683855 -0.00013911189
0001d0 06 7d 65 bd 35 42 00 3d f2 b5 1a bd c8 6d dd bc
       -0.056027435 0.03131314 -0.037771173 -0.027029887
0001e0 63 4b 27 bd 0a 69 75 3b 1f d7 b3 bc d8 30 b0 ba
       -0.04084338 0.0037446641 -0.021953164 -0.0013442291
0001f0 c2 ea ab bc df 18 63 bc 97 e8 34 3d 04 ca cf 3c
       -0.020985965 -0.01386091 0.044167127 0.025364883
000200 5c bf 10 3c f6 de 72 bc 09 33 12 3c f6 48 09 3d
       0.008834686 -0.014823666 0.008923301 0.033516847
000210 c9 8c 17 3d e3 f0 63 3c e8 05 df 3c 0a 86 f1 3c
       0.036999498 0.013912412 0.027224496 0.02948286
000220 e7 c0 13 bc 79 f8 86 bb d2 1f 1f 3d a9 93 03 3d
       -0.0090181595 -0.0041189757 0.038848706 0.03212324
000230 a0 9a 42 bc d2 b1 1d bd 94 a4 d4 bc b3 be 88 3c
       -0.011877686 -0.03849966 -0.025957383 0.016692495
000240 77 69 08 bd bd 3c cf 3c ce 84 f0 3b e4 97 e2 bc
       -0.033303704 0.025297517 0.0073400503 -0.027660318
000250 8f e2 98 3b 58 3e d8 3c ea 91 17 3d 24 4e 00 bc
       0.0046656798 0.026396915 0.03700439 -0.00783113
000260 56 a2 f5 bc 1b 35 d2 ba a2 af 13 3d a3 51 c1 3c
       -0.029984634 -0.0016037555 0.03605617 0.023598498
000270 95 0e ef bc f8 7c 22 bd c0 9b 0c bc 94 10 10 39
       -0.029181758 -0.03966996 -0.008582056 0.00013739086
000280 92 da 84 3b ac 45 94 bc ca 1f fc ba 01 a3 9a 3b
       0.004054376 -0.018099628 -0.0019235548 0.0047191386
000290 aa 13 6d bc 67 8d 1f 3d e9 76 81 3c 71 1e 1b bd
       -0.01447002 0.03895321 0.015803771 -0.037870828
0002a0 9d fe 9c bc b6 b2 e2 3c 12 94 9d 3c 36 f8 73 3c
       -0.019164378 0.027673107 0.019235644 0.014890721
0002b0 a1 00 f4 3c af 3e 85 3b df 58 08 bb 21 cb 3f 3d
       0.029785456 0.0040663104 -0.0020804924 0.04682458
0002c0 98 f5 4b bc 0b fe 57 bc c9 8b 91 bc 06 f9 54 bb
       -0.012448691 -0.013183127 -0.01776685 -0.0032497062
0002d0 9c f6 3d 3d 90 d3 03 bc 34 b9 d4 bc 15 dd 4b bc
       0.046377763 -0.008046046 -0.025967218 -0.012442847
0002e0 d7 5e fd bc 9d 9e e1 bc 85 8b 01 bd 50 17 b5 bc
       -0.030929012 -0.027541453 -0.031627197 -0.022105843
0002f0 a3 34 25 bd 8a e2 25 3c ad f7 01 bd 66 13 97 3c
       -0.0403334 0.010124812 -0.031730343 0.018441867
000300 8f 00 45 bd 86 bf 0d 3d 07 2b a8 bc 08 f6 24 bc
       -0.048096236 0.03460648 -0.02052833 -0.010068424
000310 05 79 01 3d ca 66 ab 3c c4 ab 41 3c b6 b7 a7 bc
       0.031609554 0.020923037 0.011820737 -0.020473342
000320 0e dd fc 3c ad d9 a0 3c 55 07 9d bc d2 20 05 bc
       0.030867126 0.019635046 -0.019168535 -0.008125501
000330 a8 88 10 3d c6 20 8e bc 4b d4 12 bd a3 41 1b bd
       0.035286576 -0.017349612 -0.03584699 -0.037904393
000340 bb 43 a1 bc 23 3d de bc ba 72 7b 3c f3 4d 10 bd
       -0.019685617 -0.027128762 0.015347177 -0.03523059
000350 46 f6 23 bd 3f d7 83 bc 5a 3f 3f bd c4 06 75 bc
       -0.040029787 -0.016093848 -0.046691276 -0.014955226
000360 13 22 c8 3c 33 44 70 bc 25 22 44 bc bc 81 60 b8
       0.02443031 -0.014664697 -0.011971031 -5.3526586e-05
000370 74 23 a6 bc 8c 59 7c 3c b9 a8 fc 3c e5 cf 41 bd
       -0.020280577 0.015402209 0.030842172 -0.047317404
000380 69 0d 00 3c 70 e3 1f 3d cc dd 62 38 42 04 07 bd
       0.007815697 0.03903526 5.4089163e-05 -0.032963045
000390 59 51 28 bc 68 85 0a 3d 58 0e d3 3c 88 b2 8e bc
       -0.010273301 0.033818632 0.025763676 -0.017419115
0003a0 93 74 0c 3d 51 a2 58 3c b4 4e f1 bb fb 5e 82 bc
       0.03429086 0.013222293 -0.0073641185 -0.01591443
0003b0 5e 58 0c bd 1a 03 94 ba e7 6d 16 3d 40 f5 e8 3c
       -0.03426396 -0.0011292428 0.036725905 0.028437257
0003c0 2d 96 29 bd 7a f7 98 b9 13 0d 1e 3d 1b ff 0b bd
       -0.041402984 -0.00029176084 0.038586687 -0.034178834
0003d0 95 cf 24 bd 12 b0 f9 39 b3 29 e0 bc 94 cc 04 3d
       -0.04023703 0.00047624164 -0.027363634 0.032421663
0003e0 fc 6b 7e 3c 00 89 d5 bc 65 fd 0d 3c 36 94 ba bc
       0.015528675 -0.026066303 0.008666371 -0.02277575
0003f0 1f bb 26 bd 6d f7 f4 3c c7 45 84 bc 91 4b 44 3d
       -0.040705796 0.029903138 -0.016146554 0.04792363

sequential/dense_1/MatMul f4 [64, 64]
000000 a9 38 c8 bc b4 a4 95 bb c4 85 ce 3d 80 e0 90 bd
       -0.02444108 -0.0045667533 0.100841075 -0.0707407
000010 99 30 1f be 0f 96 32 bd f7 ce d8 3d 5e 14 57 bd
       -0.15545882 -0.04360014 0.105863504 -0.052509658
000020 12 ac f7 bd 84 b2 f8 bd c5 68 c9 bd 88 17 78 be
       -0.12093367 -0.12143424 -0.09834436 -0.24227726
000030 37 d4 f2 3d 28 8c 1c be ef 01 94 3b bd de ed 3d
       0.11856883 -0.1528784 0.004516832 0.116147496
000040 ed 81 31 3d ab 4a 2a bd ce 6a 31 be b3 56 a2 3d
       0.043336798 -0.041575115 -0.17325899 0.07926693
000050 15 ea 20 be d0 8f 00 be f7 31 d5 bd 95 98 bc bd
       -0.15714295 -0.1255486 -0.10409921 -0.0920879
000060 6d e3 80 3c bf 99 e5 3d 6b fb ba 3d 37 51 04 be
       0.015733445 0.11210965 0.091299854 -0.12921606
000070 be 27 07 3e 8d ed 52 be ec b3 1b bd 03 b2 ae bd
       0.13198754 -0.20598431 -0.038013384 -0.08530047
000080 a6 e8 10 3d 0c 0a 29 bd 7e ab b9 bd 9e 0e 12 be
       0.03537812 -0.041269347 -0.09065913 -0.14263389
000090 16 42 80 be 39 3e 5e 3d be 08 63 bd 04 22 a4 3b
       -0.2505042 0.05425856 -0.05542826 0.005008938
0000a0 e3 8c a2 bc 18 7c 36 bd aa b9 65 be b5 c2 0e 3e
       -0.01984257 -0.04455194 -0.22434106 0.13941462
0000b0 ec 68 4a be 06 c5 c0 ba fb 56 c1 bd 8b b8 08 bd
       -0.19766587 -0.0014707155 -0.09440418 -0.03337912
0000c0 71 3c 26 be 0c aa bb 3c 78 72 e1 bc b2 4a d4 bc
       -0.16233994 0.022908233 -0.027520403 -0.025914524
0000d0 a1 d4 9a 3b 04 81 3f be 4d 9b 3c be 4d f9 30 be
       0.0047250544 -0.1870156 -0.18418618 -0.172826
0000e0 80 c5 ff 3c 4d 5e 2c be 6d 98 e7 3d ac 02 3b be
       0.031222105 -0.16832848 0.1130837 -0.18262738
0000f0 57 c3 46 bd 77 bf bb 3d 8f b5 db 3c 92 1c 0f bd
       -0.048526134 0.091673784 0.026819972 -0.034939356
000100 f0 07 13 be e6 89 32 be 30 63 47 be 87 14 3c bc
       -0.14358497 -0.17435417 -0.19471431 -0.0114795035
000110 a9 bb ad bd b5 73 49 3d c1 5c bf bd db dd 18 be
       -0.08483059 0.049182612 -0.09343863 -0.14928381
000120 98 64 89 bd 77 5b 10 3e 3c d0 6c be ee d2 18 be
       -0.0670864 0.14097391 -0.2312631 -0.14924213
000130 7a c1 58 be c9 93 8a bd 4b f9 50 bd f8 71 ed bd
       -0.21167555 -0.06766469 -0.051018994 -0.115940034
000140 d2 f1 1e be 5e 72 1c be ba 4b c4 bd a5 8b c7 3d
       -0.15521935 -0.15278003 -0.09584756 0.09743432
000150 38 a9 a2 bc 62 e6 49 be cc bc 20 be c0 9f cb 3d
       -0.01985608 -0.1971679 -0.1569702 0.09942579
000160 09 bf 42 3d ea b5 be 3d c8 25 74 bd 5d 95 5e be
       0.047545467 0.09312041 -0.059606344 -0.21736665
000170 47 68 2e bd f2 aa cd bd b9 d8 22 be 13 d5 1f bb
       -0.042579915 -0.10042371 -0.15902986 -0.0024388477
000180 48 9e 19 3e c4 47 09 3e 96 39 09 3c 63 83 58 be
       0.15001786 0.13406283 0.008375546 -0.2114387
000190 ae 3b 70 3d 05 c5 f2 bc 8a 7b 33 be a8 58 bd 3c
       0.058650665 -0.029634962 -0.17527595 0.023113564
0001a0 04 ea 6a be 61 92 13 be c2 91 7d 3d c6 ed 48 be
       -0.22940832 -0.14411308 0.061906584 -0.19621953
0001b0 4a e2 8f ba 17 83 8a 3d b2 67 ed 3d 20 ea 83 be
       -0.0010977474 0.06763285 0.11592044 -0.2576456
0001c0 27 e1 e6 3d f3 7d c4 bc 69 7c d7 3d 1d 15 a3 3d
       0.11273413 -0.023985839 0.10521776 0.079630114
0001d0 0b f6 09 3e 4b 25 98 3d 1c 23 e1 3c e5 70 8a 3d
       0.13472764 0.07428988 0.027482562 0.06759814
0001e0 c1 6a 07 be bd 06 b9 3d 98 77 c7 bc ef d7 8d 3c
       -0.13224317 0.09034488 -0.024349019 0.01731488
0001f0 ac c6 14 be 66 cf d2 bc ab 44 85 3d 43 76 21 be
       -0.14528912 -0.02573366 0.06507238 -0.1576777
000200 3f 87 cc 3d 2f 81 99 bd d2 8a 16 be e4 d5 e3 bc
       0.09986734 -0.07495343 -0.14701393 -0.027811952
000210 e6 3a 81 bc 16 25 b8 3d ab 18 36 3d ff dc 90 3b
       -0.015775155 0.089914486 0.04445712 0.004420876
000220 e7 19 04 3c 80 26 4d be 1c b8 4e be 1a 48 c6 3d
       0.008062816 -0.20034218 -0.2018742 0.09681721
000230 ce 32 c4 3d d5 ed 55 3d dd c4 04 3e d8 33 f5 3c
       0.09580003 0.052228767 0.12965722 0.029931948
000240 5a a0 5e be 78 29 e9 3c fb c7 72 be c1 d1 70 bd
       -0.21740857 0.028462157 -0.23709099 -0.058793787
000250 60 2a f6 3c d7 6e db 3d bb 2d 43 be 0d 3d b0 3d
       0.030049503 0.107145004 -0.19060414 0.086053945
000260 4e 85 34 3d 58 cd 32 bd f6 00 82 3d e0 21 a4 3d
       0.04407244 -0.043652862 0.063478395 0.08014274
000270 e4 72 fc bd ad d2 9d 3c 33 80 89 bd 93 92 08 be
       -0.12326601 0.019265497 -0.06713905 -0.13337164
000280 60 37 90 3d a3 f8 17 bd c4 e5 ae 3d a3 d4 4d be
       0.07041812 -0.037102353 0.08539918 -0.20100646
000290 a5 58 73 be 0b 2c 24 3e c5 7e 14 be 89 ee c8 bb
       -0.23764284 0.16032426 -0.14501484 -0.006131951
0002a0 48 0f 3d be 4c 50 61 3d 28 27 59 3d ff 1e 99 3b
       -0.1846286 0.055008218 0.053015858 0.0046728845
0002b0 6e 84 9f bd cd 39 00 be 8e a2 8d bd 2e 48 1e be
       -0.07788931 -0.12522049 -0.069157705 -0.15457222
0002c0 7c f2 7e 3d 99 96 62 bc d5 f5 c3 bd 79 12 16 be
       0.06224297 -0.013829851 -0.09568373 -0.14655484
0002d0 38 46 99 3c 27 17 30 be f4 10 1b be 46 cd b0 3d
       0.01871024 -0.17196332 -0.15143186 0.08632903
0002e0 18 3d bd bd 82 5e 19 3e c0 ed cd 3d 17 f4 22 be
       -0.09240168 0.14977458 0.10055113 -0.15913425
0002f0 73 e8 40 3d 56 be 51 3d 9d 17 77 bb 0d 31 9b 3d
       0.04709668 0.05120691 -0.0037703284 0.07577715
000300 b5 7c 48 3d 03 6a 05 3e 55 9d c7 3d 08 da 87 be
       0.048947055 0.13028722 0.097468056 -0.26533532
000310 9b 4e c1 bd 17 2c d6 3c 40 19 2b 3d d9 d4 a6 bd
       -0.09438821 0.02614407 0.041772127 -0.08146066
000320 dc c3 22 be 57 43 f9 3c 65 73 b9 3d bb 3c 0c be
       -0.15895027 0.030427618 0.09055213 -0.13695042
000330 94 34 05 3d 4e 5b 41 bd 31 01 3b bd 1c d5 b2 3d
       0.032520846 -0.047206216 -0.045655433 0.08732054
000340 d8 27 79 bc 1f 02 c4 3c 64 2a 5f be 0d 20 81 be
       -0.015207253 0.023926793 -0.21793514 -0.25219765
000350 c3 1c 2b be b7 a4 ca 3d db f9 b3 bd 3a 4c ee bd
       -0.1671019 0.09894698 -0.087878905 -0.11635633
000360 d2 42 72 be 26 9d e3 bd 43 91 3f be f9 33 67 be
       -0.23658302 -0.11113958 -0.18707757 -0.2257842
000370 72 d4 dc bd 97 83 35 3d aa eb 72 3d b6 df 0a bd
       -0.10782708 0.044314947 0.059306778 -0.033904754
000380 05 05 03 be 13 27 03 be cd 73 9b 3d 50 70 94 3d
       -0.12794884 -0.12807874 0.075904466 0.072479844
000390 67 f3 a0 bd a3 1b 14 3d 54 e7 59 be bb cc c2 bd
       -0.07858925 0.03615917 -0.21279651 -0.095117055
0003a0 49 80 e0 3d 76 16 cc 3d a0 62 6b be 44 4d b1 3c
       0.109619685 0.099652216 -0.22986841 0.021643288
0003b0 ba b6 08 bd f3 01 e1 bd 78 ea 49 be 18 52 84 be
       -0.033377387 -0.109867 -0.19718349 -0.25843883
0003c0 39 b5 81 be a6 8e c0 bc c5 de 3a be 22 fd 7b 3d
       -0.25333574 -0.02350552 -0.18249042 0.061520703
0003d0 fe e3 51 be 29 e8 83 be 07 b5 c2 bd 38 e5 3d bd
       -0.20497128 -0.25763062 -0.095071845 -0.04636118
0003e0 f6 0b c4 3d 37 3f 88 bd 7c 81 dd 3d 96 5b 19 be
       0.09572594 -0.06652682 0.10815713 -0.14976344
0003f0 14 28 50 bd 78 c9 4b be d9 94 db bd 48 0e 20 bc
       -0.05081947 -0.19901073 -0.1072175 -0.00976903

sequential/dense_2/MatMul f4 [4, 64]
000000 86 08 89 bd 5c f8 05 bd 44 47 26 3d b0 88 9a 3c
       -0.06691079 -0.032707557 0.040595308 0.018864006
000010 25 fd 18 bd 7f 17 f6 3d 76 0f 0a be 7f 4f 54 bd
       -0.037350792 0.120162 -0.1348246 -0.051833626
000020 cb c5 14 3e 21 76 f2 3d a4 af b1 bd 78 1f 4b 3e
       0.14528577 0.118389376 -0.08676079 0.19836223
000030 ac 52 ca 3d 4e 42 2d 3d a2 97 cf bd a8 45 4b be
       0.0987905 0.04229956 -0.101363435 -0.1985079
000040 9c fe 34 be 1a c3 cf bd bb f4 03 3e ec 46 24 be
       -0.17675251 -0.101446345 0.12886326 -0.1604268
000050 e3 99 82 3e da fd cf bd d1 5d b4 bd bd fe 0b 3e
       0.2550803 -0.1015584 -0.088069566 0.13671394
000060 5e a6 06 be f5 0e 47 3d 12 4e 1a 3e 97 1d 57 be
       -0.13149402 0.04859825 0.15068844 -0.21007381
000070 e7 c9 4f 3c 5b 8a 2d 3e b1 3a 7f 3e b4 d6 57 bd
       0.012682415 0.1694731 0.24924733 -0.05269499
000080 af 2d 7c 3d 69 83 a8 bd 0d 4c f3 3c 33 b1 16 be
       0.061567005 -0.082281895 0.02969935 -0.14716034
000090 88 8a 97 bd d8 df 5c bd f8 6d c6 3d 15 a7 f8 3d
       -0.073994696 -0.05392441 0.096889436 0.12141243
0000a0 2f e8 16 be 97 58 c7 bc c4 d2 f8 3d a7 ae 22 3e
       -0.14737009 -0.024334235 0.12149575 0.15886937
0000b0 73 81 f5 3d 22 d0 25 3d 72 b4 d3 3d d6 0d 58 be
       0.11987581 0.040481694 0.103371516 -0.21099028
0000c0 3e 30 08 be d4 32 19 bd a3 b0 09 be 73 dc 27 3d
       -0.13299653 -0.03740199 -0.13446288 0.04098172
0000d0 e2 34 a7 ba 8a 8b ba bd 64 df c0 3d 4d 53 30 be
       -0.0012756849 -0.09108646 0.094176084 -0.17219277
0000e0 76 36 18 3d 7f 95 b5 3d e1 96 62 be 39 35 5d bd
       0.037161313 0.08866405 -0.22127868 -0.054005835
0000f0 57 3b 0f bd 60 78 47 be b9 05 84 bd 30 ad 11 3e
       -0.0349687 -0.19479513 -0.06446404 0.14226222
000100 90 42 e9 3d 6e 90 2c be 23 25 b5 3d cc f4 49 be
       0.11389649 -0.1685197 0.08844974 -0.19722289
000110 50 be 56 3d 09 d3 d2 bc d2 99 b3 bd 32 03 8d 3c
       0.05242759 -0.025735395 -0.08769573 0.017213438
000120 e6 ef 0d 3e dc 65 e2 3d 7e c1 d9 bd f4 8b 9f bc
       0.13861045 0.110545844 -0.10632609 -0.019475915
000130 3d aa ca 3d b0 3b 65 bd 39 53 4d be 81 6d 47 be
       0.098957516 -0.055965126 -0.20051278 -0.19475366
000140 7c 33 3d be a0 5f d0 bd a4 99 d8 3d 52 99 0a be
       -0.18476671 -0.10174489 0.105761796 -0.1353505
000150 92 06 fc 3d 21 2b a9 3d d1 f7 c4 bd 29 86 14 3e
       0.12305941 0.08260179 -0.0961758 0.14504303
000160 c9 22 41 be d4 08 d7 3d 5e 27 16 bd 4e 68 54 be
       -0.18860926 0.10499731 -0.036658637 -0.20742914
000170 9b fe 04 bd 94 28 65 3e 62 f0 79 3e 23 65 37 3d
       -0.032469373 0.2237876 0.24408105 0.044774186
000180 60 68 89 3d 47 ed 3d bd bb db 03 3e 23 72 75 3d
       0.06709361 -0.046368863 0.1287679 0.059923302
000190 e1 e3 b5 bc f6 ee 8b 3b 02 70 db 3d 30 eb dc 3d
       -0.022203388 0.0042704297 0.10714723 0.10787046
0001a0 b0 02 48 bd 49 68 28 bd 0d 88 fe 3d 35 aa 40 3e
       -0.048830688 -0.04111508 0.124282934 0.18814929
0001b0 74 81 87 bd 49 db 02 3d a3 f4 b7 3d 89 c4 da bd
       -0.06616488 0.031947408 0.089822076 -0.10682017
0001c0 f1 2d 4d bd 72 1c 3a be c5 b8 ac bd 8d a5 84 3d
       -0.05009264 -0.18174914 -0.084336795 0.06476889
0001d0 70 e1 30 bd be dd 19 bd 98 38 81 bd f1 3f 2e be
       -0.043183744 -0.037564985 -0.063096225 -0.17016579
0001e0 05 4b c8 3c cd 37 fb bd 55 4c 5e be 62 d2 fc bd
       0.024449835 -0.122665025 -0.21708806 -0.12344815
0001f0 a4 4e 5e 3c b8 9b 28 be 27 21 92 bd ab cf 9e bd
       0.013568554 -0.16465652 -0.071352296 -0.07754453
000200 b4 5f 85 ba 35 de b6 bc 4e 23 59 bb 2e 5b 90 bd
       -0.0010175616 -0.022322753 -0.0033132615 -0.07048641
000210 0a 90 77 3e 7f d2 0e 3d 3f fc 52 3e 83 bf 1c bd
       0.2417604 0.034868713 0.20604037 -0.038268577
000220 45 d5 11 3e e3 84 ec 3d 39 12 c9 bd a8 cd c9 3d
       0.14241512 0.11548784 -0.09817929 0.09853679
000230 8c 80 d0 3d 8d ec dd 3c 26 57 3e be dc a0 4d be
       0.10180768 0.027090335 -0.18587932 -0.20080894
000240 6d 3f 68 be 14 91 c5 bd 6a 6d f1 3d 0f ca 23 be
       -0.22680445 -0.09646812 0.11788447 -0.15995048
000250 69 47 80 3e 41 65 83 bd b5 f1 b3 bd 6c 0c 0e 3e
       0.25054482 -0.06415797 -0.08786336 0.13871926
000260 98 fe 40 bc 06 a6 5e 3d 34 df 14 3e 0b 79 26 be
       -0.01177945 0.05435755 0.1453827 -0.16257112
000270 79 96 24 3c 48 66 c0 bd 30 dd 78 3e 7d b0 25 bd
       0.010045641 -0.093945086 0.24303126 -0.040451515
000280 25 c2 7d 3d 5f 56 51 3d 90 f2 11 3e 07 fa 88 3d
       0.06195273 0.05110776 0.14252687 0.06688314
000290 23 86 95 bd f6 43 dd bd 82 b5 ca 3d 90 bb eb 3d
       -0.07300975 -0.10803978 0.09897901 0.11510384
0002a0 3d 40 0c be f7 56 f6 bc 48 82 be 3d fe 50 49 3e
       -0.1369638 -0.030070765 0.09302193 0.19659802
0002b0 78 dd c3 3d 54 03 36 3d 3f 43 c4 3d 7d 63 bc bd
       0.09563726 0.044436768 0.09583139 -0.091986634
0002c0 ce 0b 33 3e 24 44 04 3d a8 fd a8 bd f4 c7 3f 3d
       0.17484972 0.032291546 -0.08251506 0.04682155
0002d0 57 7c 05 3c 59 98 3a be 82 af b0 3d 3e 4d 33 be
       0.008147321 -0.18222179 0.086272255 -0.17509934
0002e0 e4 62 fa bc 35 86 14 3d 67 e4 5e be b4 42 80 bd
       -0.030564733 0.036260802 -0.21766816 -0.062627226
0002f0 dd 52 28 3c 6d 53 5d be b0 57 1b 3d d3 9e 1c 3e
       0.010273662 -0.21613856 0.037925422 0.15294962
000300 dd 72 01 3e f4 e0 81 bd 83 50 2b 3d 59 d1 24 bc
       0.12641473 -0.063417345 0.04182483 -0.010059678
000310 31 ca 40 be c7 6c 59 3d bc c1 6b 3e 59 ea 5d 3b
       -0.1882713 0.053082254 0.23023123 0.0033861606
000320 2d 58 0e 3e 19 b8 e2 3d 43 a2 da bd d1 93 10 3d
       0.13900824 0.1107027 -0.1067548 0.03529722
000330 a6 51 d1 3d f2 31 04 bd 66 89 15 be e9 b5 4a be
       0.10220651 -0.032274194 -0.14603195 -0.19795956
000340 c5 d1 ca bd cd 45 9e bd 2e 20 f4 bd 89 76 13 be
       -0.099032916 -0.07728157 -0.119202 -0.14400686
000350 da 4c 1d be bc 68 b6 3d 17 4d bb bd b4 e1 13 3e
       -0.15361348 0.08906695 -0.09145563 0.14441568
000360 f3 f7 0e be 7f c8 b4 3d 60 ab 1a 3d 9b a7 62 3b
       -0.13961773 0.08827304 0.037761092 0.0034584764
000370 71 ed 81 bc d1 82 9c 3d bc cd 73 3e 8d b2 92 3c
       -0.015860291 0.07642139 0.2380895 0.017907405
000380 1e b0 84 3d cf 05 fb 3d 6e 85 aa bd b1 b0 e5 3c
       0.06478904 0.12256967 -0.08326231 0.028038355
000390 dd 75 2c bd e6 2a 14 be 9f 32 d5 3d 07 48 e4 3d
       -0.04210459 -0.1446949 0.10410046 0.111465506
0003a0 e1 59 a2 bd d2 b1 16 bd 88 4d 1a bc 80 5f 4c 3e
       -0.07927299 -0.036790676 -0.009417899 0.19958305
0003b0 67 e1 86 bc e7 22 1f 3d 8a ef 68 3d a2 21 3b be
       -0.016464902 0.038851645 0.056869067 -0.18274549
0003c0 99 22 d2 3d 2d c4 28 3d 68 f3 35 be 05 89 77 3d
       0.10260505 0.041202713 -0.17768633 0.060433406
0003d0 19 6e 6c 3c b0 40 30 be b1 3c 34 3d d6 fe 2f be
       0.014430546 -0.17212176 0.044003192 -0.17187056
0003e0 06 65 17 be 14 9e e4 3d a3 74 5d be bc 5d d9 bd
       -0.14784631 0.111629635 -0.21626525 -0.106135815
0003f0 55 ca d1 bd a9 0a a8 bd eb c9 38 be 7d 6b 2f 3e
       -0.1024367 -0.08205158 -0.18045776 0.17130847
