student_model.tflite (tflite, 58500 bytes, 4 tensors)

dense/bias f4 [4]
00000000: 5e64 173e 3466 453f db39 4abf aad9 92bd
0.14784381 0.77109075 -0.7899453 -0.071704224

conv1d/bias f4 [64]
00000000: 044b b6c0 cf8f d6c0 a195 a3c0 0270 95c0
00000010: 891a e9c0 7a31 d9c0 1bcc efc0 f32e b8c0
00000020: a8d5 d5c0 924b 5fc0 c1ce d5c0 cdff dac0
00000030: 8400 cec0 b06f c0c0 bfc2 cdc0 4536 d4c0
00000040: 79b7 97c0 dbc3 9ec0 3caf a1c0 74c3 bec0
00000050: f024 41c0 0157 9fc0 8025 f8c0 6efa d3c0
00000060: d5a6 ecc0 3af0 b5c0 6a35 b2c0 46b4 dbc0
00000070: faef c6c0 f1e8 e5c0 984e 77bb 2d51 aac0
00000080: 63c8 c3c0 7a57 93bf 9da6 ddc0 9fac c7c0
00000090: e50e ccc0 e9bf cfc0 4a7e 79c0 8df1 efc0
000000a0: 58e2 cfc0 6ec9 ddc0 c1e8 bec0 100b dfc0
000000b0: c77a dcc0 79ad dac0 c9be d3c0 ffb1 cfc0
000000c0: 9171 adc0 50e9 84be 2331 fec0 3e60 9cc0
000000d0: 39bf d0c0 eabe cbc0 1c8f d4c0 356d d7c0
000000e0: 8dd1 b8c0 abf8 a8c0 9a85 e7c0 59ad b4c0
000000f0: 06ae c5c0 1132 e5c0 551b cdc0 71cc c4c0
-5.696657 -6.7050548 -5.1120152 -4.669923 -7.284489 -6.7872896 -7.493665 -5.755731
-6.682331 -3.4889874 -6.6814885 -6.8437257 -6.437563 -6.0136337 -6.4300227 -6.6316247
-4.7411466 -4.961408 -5.052641 -5.961359 -3.0178795 -4.9793706 -7.7545776 -6.62432
-7.395365 -5.6855745 -5.5690203 -6.865756 -6.216794 -7.184685 -0.0037736055 -5.322409
-6.1182113 -1.1511071 -6.9265885 -6.239822 -6.376818 -6.4921765 -3.898333 -7.498236
-6.49638 -6.9308386 -5.9659123 -6.9701004 -6.8899875 -6.833676 -6.617039 -6.490478
-5.420113 -0.25959253 -7.943498 -4.8867483 -6.5233426 -6.367055 -6.6424694 -6.732081
-5.77558 -5.280355 -7.235059 -5.6461606 -6.177493 -7.1623616 -6.4095864 -6.149956

sequential/dense/MatMul f4 [4, 1856]
00000000: 129a a23c 257f 013c 2c7f 7c3c f235 8a3c
00000010: 236d 63bc 92e3 c33c 7ddd 273d 85c1 243c
00000020: cb2c 013d be64 2fbc 8c60 233d d692 ae3c
00000030: 87d5 ecbb 166c b83b 4659 af3c f5e5 6c3a
00000040: 6539 723c 6df8 70bc ed19 86bb de4e b03c
00000050: 9e35 51bd e069 8cbc 2d34 923c 82c7 833b
00000060: 4563 c6ba 68ed 333d 8145 b23c f0d0 b3bb
00000070: b53a 223b 2147 7a3b 8d25 aebc b397 023b
00000080: a184 6dbb f979 203c 9929 c8bc 3ce4 ff3b
00000090: 075e ba3c b08b 64bc 097a d7ba 8a36 603c
000000a0: 28a1 8b3c cf8f ef3a aece ba3c 49cf e23c
000000b0: 868f 4fbc 1fdf 3bbc c022 6b3c 6ed4 6b3b
000000c0: 0439 9dba 1543 023d b699 f23c a817 9dbc
000000d0: 7bdf e53c 40be b239 9e69 2f3c ceec 5d3c
000000e0: 9939 2fbc 46e7 b0bc b806 d5bb 5819 a63b
000000f0: 5e5d 453c 924d cc3c 26d3 e63c 9887 ec3c
00000100: 05bb febb a123 043d ac9f b7bb 93e4 33bd
00000110: 42ec aabc f5c8 96bc c6e3 c93c ca04 a13c
00000120: 6148 7ebc f4a7 0f3b e189 5e3c 1db0 823c
00000130: f99e 733b 7669 64bb fa4f ff3c 94b9 3bbc
00000140: 4409 f63c 0804 1a3b 0212 4a3c 0400 253c
00000150: e432 81bc 3908 593c 5229 943c 6cca cbbc
00000160: 0dbb 823c 1d81 593c d6bc 563c f50d fb3c
00000170: 36e7 cb3b b493 923b 4e2d 02bd 0093 883c
00000180: d917 f23c f032 c93a b595 093c 83c0 593b
00000190: de9f 123c 9942 533c 5a42 b13a f219 8eb9
000001a0: 02ac 5f3b 9026 1e3c b26a 9d3c ef44 ecbb
000001b0: f93c 8f3c 5319 9c3b a254 d83c 197d 063d
000001c0: 9856 81ba a8ef aabb 7805 5d3d e304 093c
000001d0: 6604 1d3c 48fa 34bc 6995 003c 23b2 4dbc
000001e0: 331e b5bb 2a29 9abc d8ee 4e3c 86f4 e3bb
000001f0: 77c7 cb3a 8ef0 18bd 2a80 4b3b 031c 98bc
00000200: e9c3 c4bb d131 eeba a9b9 bf3c f38c 803c
00000210: e9ff 023d 1e49 c43b 78b9 7ebb 45d3 3e3b
00000220: 16b4 2f3c c2f7 a33c 52f5 993c 8011 413c
00000230: a301 5dbc ecf9 3c3d 89ac 9d3c cfef 073d
00000240: 2afa 903c 906a d83b dc5d 0b3c 1f4a 683c
00000250: 6d18 003c ab80 f43c 6657 b2bc 445a 1f3c
00000260: cca5 2e3d 4697 1f3c e6b9 283b 2b5d 1d3c
00000270: de13 103c 2db0 96bc 801b ce38 1f8f fe39
00000280: bde5 9ebc 8688 7d3c 0521 ce3b 8b12 cf3c
00000290: 524f 1bbc 9815 083c c1e9 e1ba c6bc 01bd
000002a0: 6752 2a3c ec0f 8fbb 6edb ec3c 2994 013c
000002b0: dc6b cabb 105a 153c 8f0b 5c3c 7f19 78bb
000002c0: aa2f 0ebc 0d5a ca3c d13f d9bb 3208 23bc
000002d0: 9536 9ebb 87b2 1a3d 3982 e639 4f1e 2ebc
000002e0: 64da 7dbc 5d08 853b 810a 973c 9a75 5ebc
000002f0: 6d84 923c eafb bb3c fe8f a03c e63a 01bb
00000300: 119c 613c 7287 c3bc b52e 193c 15cf 82bc
00000310: b237 8e3c 53db 9abc e906 0d3d a915 d83c
00000320: 940a 9abc 0b2b ba3b 4a60 a1bc 0f69 e23c
00000330: 6826 c03c f2c0 b03c 8bd1 173d 260c 043c
00000340: 98ae 4f3c ef71 30bc 404e 463c 8f22 a53b
00000350: 9dd9 d2bc f0d5 0d3c 293a 1a3c f02b c0bc
00000360: 1f5f efbc 4580 f9ba c938 883b 1fc1 763c
00000370: c3d3 0d3c 945e 043d 914c 65bc a25d 0fbc
00000380: 0a74 bd3c ceba e33b c68d d4bc 5847 4f3c
00000390: c164 35bb c07f 3d3c b433 943a f1eb 43bc
000003a0: da16 1fbd 43b2 003d 14df febb e552 853c
000003b0: 8aba 00bd be11 703c c847 ad3c 8225 e3bc
000003c0: 82d8 c13c 9738 b3bb 1f8b 22bb 68a6 363c
000003d0: 0e23 78ba 8ec1 a9bc e0fe 063b 6c74 353c
000003e0: d10b 333c 603e 51bc 8c13 903c 2d2b ab3c
000003f0: d012 e1bc 0b0f c9bc 51a2 10bb fbc8 23bb
0.019848857 0.007903849 0.0154111795 0.016871426 -0.013881001 0.023912225 0.040982712 0.010055904
0.03153686 -0.010705171 0.039886996 0.021310251 -0.007227603 0.005628119 0.021404874 0.0009036952
0.014784192 -0.014707667 -0.004092446 0.021521982 -0.051076524 -0.017140329 0.017847145 0.004021586
-0.0015135786 0.04392758 0.021761658 -0.005487554 0.002475423 0.0038189369 -0.02125814 0.0019926846
-0.0036242383 0.009794706 -0.024433898 0.00780919 0.022749914 -0.01394932 -0.0016439568 0.013684878
0.017044619 0.0018277111 0.02280363 0.027686732 -0.012668496 -0.01146677 0.014351547 0.0035984772
-0.0011995141 0.031802256 0.02961431 -0.01917632 0.028060665 0.00034092553 0.010706333 0.013545228
-0.010694885 -0.021594655 -0.006501045 0.005068939 0.012046186 0.024939332 0.028176855 0.02887325
-0.0077737593 0.03226054 -0.005603751 -0.043919157 -0.02086461 -0.01840637 0.024644744 0.019655604
-0.015520186 0.0021920176 0.013582678 0.015953118 0.0037173613 -0.0034852899 0.031166065 -0.0114578195
0.030033715 0.0023500938 0.012333395 0.0100708045 -0.015771337 0.013246589 0.01808611 -0.024876796
0.015958333 0.013275412 0.013106545 0.030646304 0.006222631 0.004473174 -0.031781487 0.016671658
0.029552387 0.0015350264 0.008397509 0.0033226318 0.008949248 0.012894296 0.0013523803 -0.0002710368
0.0034129624 0.009652749 0.019215915 -0.007210366 0.017485129 0.004763761 0.026407544 0.032834146
-0.0009867726 -0.0052165575 0.053960294 0.0083629815 0.009583568 -0.011046 0.007848122 -0.012554678
-0.0055272817 -0.018818457 0.012630187 -0.0069566397 0.0015547116 -0.037338786 0.0031051734 -0.018568045
-0.0060047996 -0.0018172805 0.02340396 0.01569221 0.031982336 0.0059901616 -0.0038867872 0.0029117626
0.010724088 0.020015601 0.018793736 0.0117839575 -0.01348916 0.04613678 0.01924731 0.033187684
0.017697413 0.0066045 0.008506265 0.014177828 0.007818324 0.02984651 -0.02177019 0.009726111
0.042638585 0.009740656 0.002574557 0.0096047325 0.008793799 -0.018394554 9.827968e-05 0.0004855329
-0.019396657 0.015474444 0.0062905573 0.025277397 -0.009479361 0.00830593 -0.0017235802 -0.03167417
0.010395623 -0.0043659117 0.028913226 0.007908859 -0.0061774086 0.009115711 0.01343049 -0.0037856994
-0.008678356 0.024701143 -0.006629922 -0.009950684 -0.004828284 0.037767913 0.00043966042 -0.010627343
-0.015493963 0.004059835 0.018437626 -0.013577843 0.017885411 0.02294727 0.01959991 -0.0019718944
0.013770119 -0.023868296 0.009349515 -0.015967885 0.017360542 -0.01890341 0.03443042 0.026377516
-0.018803872 0.0056814007 -0.019699235 0.027637986 0.023455814 0.021576378 0.03706507 0.008059537
0.012675904 -0.010769351 0.012103617 0.00503952 -0.025738532 0.008656964 0.0094132805 -0.023458451
-0.029220162 -0.001903542 0.00415716 0.015060692 0.008656445 0.03231676 -0.013995306 -0.008750351
0.02312662 0.006949759 -0.02594651 0.012651287 -0.0027678462 0.0115661025 0.0011306913 -0.011958108
-0.038840152 0.031420004 -0.007778058 0.016274879 -0.031427898 0.014652668 0.021152392 -0.027727846
0.02366281 -0.0054693925 -0.002480216 0.011148073 -0.0009465673 -0.020722177 0.0020598695 0.01107512
0.01092811 -0.012771219 0.017587446 0.020894611 -0.02747479 -0.024543306 -0.0022069404 -0.002499162

sequential/conv1d/Conv1D f4 [64, 1, 100, 1]
00000000: a65c 9dba 0037 85b6 bc7e 3e39 c99e 92ba
00000010: 716a 86bb 9257 ce38 de82 c8ba 4bc1 64ba
00000020: c995 873a 789d fb3a a8b3 fe39 7666 fc39
00000030: b5b3 edba 54ef 5e3b 4694 183b f2aa a8ba
00000040: d3cb f438 74b8 d5ba e8db a2ba 394d 2ebb
00000050: db06 a839 ed0d dbba 20e9 1f3b 8bb3 30bb
00000060: 624b 753a 169d a2b9 adf7 ae3a f7d6 45bb
00000070: 2148 94ba 443f 1abb 1ed9 3fbb dc49 94ba
00000080: 8b2a b1ba 8d0b 88ba 8dae 27bb 1539 8539
00000090: 3292 73b9 717d 4abb 7aa3 48bb 93f1 f0ba
000000a0: f46a 2bbb db39 2539 15a9 3aba b7d0 99bb
000000b0: 47b1 74ba 7994 44bb 00c1 62ba d264 b4b9
000000c0: 2836 22b8 79a0 1f3a 2789 14bb 9980 2cbb
000000d0: 2c23 4cba 4641 0eb8 dfa2 66b9 17d1 51ba
000000e0: 953d 6e3a b6e6 19bb 1ad1 373b b48d 9a38
000000f0: 3c18 713b 8b07 c239 fec8 ddba 4600 a2ba
00000100: 3e0c de3a 6d9c abb9 e1ca b73a f8c5 27b9
00000110: 0839 41bb d4ba 0ebb 2d7a 01bb afbf 063a
00000120: 5293 1dbb 16ca b6ba eeda 9fba 98ef 2fba
00000130: b889 03bb 650e 95bb 1ef3 74b9 d3ba 8639
00000140: 15ea 613b f6aa e6ba 6a63 513a 5117 0f39
00000150: ff7a 3a3b 72c9 7aba a72a 513a 0fd7 b53a
00000160: deee 2f3b 464f 0abb 42f8 1abb 4a99 713a
00000170: 7bc8 893b be89 a4ba fee9 7e3b cbf2 ef3a
00000180: 17b3 2f3b 297f 06bb e9ca 803b a842 fe3a
00000190: 60a6 5cb9 364a 64b9 c2b8 30bb 4751 e239
000001a0: 544f 81ba 5bb7 e83a b9e2 2a3a 9972 7f3a
000001b0: 7691 c13a 4caa 393b 1fc2 49ba 06ba 2aba
000001c0: dcb0 ceb9 0cce 0139 198e 17bb 7da2 4dba
000001d0: 5a4a 303b 92b1 d7ba 1dc8 0d3b 0570 313b
000001e0: d664 2e3b 5dc1 10bb 4f95 003b 44cc 45ba
000001f0: f34f f93b 1a9b 223b bc3a eb3a da27 1639
00000200: 8e4f 5c3b 724b 1e39 e134 f5ba 32f1 21bb
00000210: 58f4 e53a 0a37 943b c8b2 263b 96da 22b9
00000220: ec86 6f3b a4a7 45bb 87f9 523b 3622 323a
00000230: aec5 483b 8f2f 32bb 0026 8736 d0c0 e53a
00000240: bf50 173b 3db7 1c3a be8a 4db9 f67a 4dba
00000250: 9197 9439 98d7 6a3b ce4b 7ebb f0a5 9abb
00000260: 2da2 803b 1b79 253b 2041 763b 520d 0e3a
00000270: fe41 043b 9889 b93a 3b89 093b e264 f2ba
00000280: 264e 903a 5708 6e3a 6835 5939 8c17 6cba
00000290: 4854 aa39 4c41 76b9 21ce 993a c498 873a
000002a0: 4146 5bba 0ccb 8238 8944 5e3b 1de8 313a
000002b0: 9cee 27ba 70aa 873a f0b0 113b a5b6 aa3a
000002c0: c49c 29b8 4078 1abb 9ab7 a5ba 1c6a 4dbb
000002d0: 5432 dcba 2038 19bb 10f2 1aba 4e6c edba
000002e0: b9fb ddba eed7 0ebb 0cf9 1a3b 2970 6ebb
000002f0: a779 833a dadf 1239 a3b3 0d3b e3da 4fba
00000300: c464 1339 4327 0bbb 1f24 533b 25d2 493b
00000310: 2acd 833b 29fc 7a3b 341c be3a cad8 2cba
00000320: 0e4b 183b 16e0 423b 923b d03a 3ddb 893b
00000330: b70b 0d3b dcff 8a39 cc92 94ba b249 5bbb
00000340: e3b7 50ba 013b a7bb 95dd c839 b7ac ceba
00000350: fcd6 6a3b 1d79 84bb 2bae d63a c853 c7b9
00000360: 686d f23a 9f12 f5ba 69c1 1d3a 9caa a5ba
00000370: 5c9d f839 3df8 42bb c35f e03a ce30 85b9
00000380: fb60 cd3a d06c 5fbb 9492 2ab8 4a5c 0439
00000390: 580d 463b 34a2 b93a ba49 5a3b 017e a33a
000003a0: d73c 52ba 4390 86ba 527d 2cbb 11a7 45bb
000003b0: c6c1 08bb 13a5 f2ba e003 eb39 88ae 06bb
000003c0: 10c4 7fb9 dc8a 07bb 2008 7a37 4cf6 82ba
000003d0: 92b9 873b 4410 c4b9 1395 5e3b b80e 843a
000003e0: 69c0 733b 0063 1235 e26f 333b 50a7 f737
000003f0: d626 b239 f1c2 98bb 7fa8 07bb 96b3 90bb
-0.0012005761 -3.9701117e-06 0.00018167024 -0.0011186238 -0.0041020443 9.839157e-05 -0.001529779 -0.00087263127
0.0010344322 0.001919671 0.0004858051 0.00048141525 -0.0018135222 0.0034017162 0.0023281737 -0.0012868328
0.00011672792 -0.0016305582 -0.0012425156 -0.0026596321 0.00032048565 -0.0016712524 0.0024400428 -0.0026962485
0.0009357241 -0.00031016086 0.001334896 -0.0030187943 -0.0011313 -0.0023536244 -0.00292737 -0.0011313516
-0.0013516707 -0.0010379419 -0.0025586218 0.00025410266 -0.00023228748 -0.0030897523 -0.0030615018 -0.0018382542
-0.0026156278 0.00015757179 -0.0007120532 -0.00469407 -0.0009334278 -0.0029995723 -0.0008649975 -0.00034407392
-3.8674247e-05 0.0006089281 -0.0022664757 -0.0026321767 -0.00077872234 -3.391623e-05 -0.00021995183 -0.0008003874
0.0009088156 -0.0023483462 0.0028048218 7.3696865e-05 0.0036788126 0.00037008183 -0.0016920862 -0.0012359701
0.0016940904 -0.00032732208 0.0014022255 -0.0001600011 -0.0029483456 -0.0021778839 -0.001975666 0.00051402574
-0.0024044109 -0.0013945724 -0.0012195983 -0.00067114225 -0.00200711 -0.004548835 -0.00023360222 0.00025697667
0.00344718 -0.0017598558 0.0007987531 0.00013646229 0.002845466 -0.0009566761 0.0007979073 0.0013873297
0.0026845257 -0.002110438 -0.0023646508 0.0009216262 0.0042048073 -0.0012553257 0.0038896794 0.0018306611
0.0026809627 -0.002052257 0.003930439 0.0019398527 -0.00021042814 -0.0002177142 -0.0026965593 0.00043166635
-0.000986556 0.001775484 0.00065187697 0.00097445544 0.0014768082 0.0028330265 -0.0007696468 -0.0006512705
-0.00039423152 0.00012379157 -0.0023125468 -0.0007844342 0.0026899786 -0.0016456118 0.002163417 0.0027074825
0.0026610396 -0.002208791 0.0019620245 -0.00075453916 0.0076084076 0.0024811686 0.0017946581 0.0001431996
0.0033616754 0.0001509616 -0.0018707776 -0.0024710414 0.0017544134 0.0045231627 0.0025436152 -0.00015530954
0.0036548926 -0.0030159736 0.0032192187 0.0006795259 0.0030635404 -0.0027188992 4.0277373e-06 0.0017528776
0.00230889 0.00059782324 -0.00019602009 -0.0007838452 0.00028341686 0.003583407 -0.0038802507 -0.0047194883
0.003925583 0.0025249186 0.0037575439 0.0005418855 0.0020180936 0.0014155386 0.0020986337 -0.00184932
0.0011009618 0.0009080222 0.00020714628 -0.00090061943 0.0003248772 -0.00023484713 0.0011734405 0.001034521
-0.00083646557 6.2367035e-05 0.0033915362 0.0006786602 -0.00064061 0.0010350477 0.0022230707 0.0013024403
-4.043874e-05 -0.002357021 -0.0012643219 -0.0031343764 -0.0016799667 -0.00233794 -0.0005910704 -0.0018113942
-0.0016935981 -0.0021796185 0.0023646979 -0.003638277 0.0010030762 0.00014007036 0.0021621964 -0.000792904
0.0001405655 -0.0021233119 0.0032217575 0.0030795422 0.00402226 0.0038297272 0.0014504255 -0.00065935834
0.0023238095 0.0029735616 0.0015886894 0.0042070434 0.0021521875 0.0002651204 -0.0011335253 -0.0033460674
-0.00079619716 -0.0051034694 0.00038312064 -0.0015768026 0.0035833707 -0.004042758 0.001637881 -0.0003801866
0.001849574 -0.0018697566 0.0006017895 -0.0012639347 0.00047419488 -0.0029750012 0.0017118383 -0.000254041
0.0015669161 -0.0034091957 -4.066767e-05 0.00012622881 0.0030220356 0.001416272 0.0033308105 0.0012473465
-0.000801993 -0.0010266382 -0.0026319814 -0.0030159394 -0.002086745 -0.0018512331 0.0004482558 -0.0020550806
-0.00024391734 -0.0020682132 1.4903053e-05 -0.0009991615 0.0041419948 -0.00037396152 0.0033963367 0.0010075187
0.0037193543 5.45333e-07 0.002737992 2.9522605e-05 0.0003397974 -0.0046619107 -0.0020699797 -0.0044159396
