ib_student/student_model.tflite (tflite, 58500 bytes, 4 tensors)

dense/bias f4 [4]
00000000: 71e7 70bc 895c 1d3f 9b41 59bf c090 bb3e
-0.014703617 0.6146932 -0.8486573 0.36633873

conv1d/bias f4 [64]
00000000: 2dc9 b7bf 8686 11c0 16c7 ccbf 9c08 93bf
00000010: e84c 3bc0 5456 0ac0 cc81 a6c0 3ad7 edbf
00000020: 3384 2bc0 5cb1 1ac0 02a9 3cc0 e579 48c0
00000030: 5a29 38c0 df72 34c0 a6b4 74c0 00e7 4ac0
00000040: 0a8c cebf a408 19be 6300 07c0 159c 23c0
00000050: d2a3 53bf 6baf acbf df44 4dc0 5a45 3dc0
00000060: 3602 47c0 32aa 1bc0 8516 03c0 2c5a 31c0
00000070: 0554 17c0 1762 46c0 4bc4 16bc f167 f4bf
00000080: a4a1 32c0 8c98 b7bf 0e29 30c0 1cd5 36c0
00000090: 971b 2cc0 beb5 06c0 729e 4c3e 35bb 73c0
000000a0: 6491 c0bf d915 33c0 a881 0cc0 a3b5 33c0
000000b0: 2454 1ac0 667f 7dc0 4814 18c0 2310 57c0
000000c0: 5614 0ec0 748c cbbf 4996 52c0 e235 b5bf
000000d0: f61c 13c0 5f8b 19c0 76bf efbf 0757 4dc0
000000e0: 36c8 f3bf 7e6c d0bf 3937 79c0 c3a2 2bc0
000000f0: 33ed 0cc0 dfa4 05c0 9a02 13c0 d03d 82c0
-1.4358269 -2.2738357 -1.5998256 -1.1487002 -2.926569 -2.161519 -5.2033443 -1.8581307
-2.6799438 -2.4170752 -2.9478154 -3.1324399 -2.877524 -2.8195112 -3.823526 -3.1703491
-1.6136487 -0.14944702 -2.1093986 -2.5564015 -0.82671845 -1.3491033 -3.2073286 -2.957358
-3.10951 -2.432263 -2.0482495 -2.7711287 -2.3645031 -3.099737 -0.009202073 -1.909422
-2.7911158 -1.4343429 -2.7525058 -2.8567572 -2.689184 -2.1048427 0.19982317 -3.8083012
-1.504437 -2.7982085 -2.1954136 -2.8079612 -2.4113855 -3.9609008 -2.3762379 -3.36036
-2.2199912 -1.5902238 -3.2904227 -1.4157069 -2.2986426 -2.3991315 -1.8730304 -3.2084367
-1.9045475 -1.6283109 -3.8939955 -2.6818092 -2.2019775 -2.088188 -2.2970338 -4.0700455

sequential/dense/MatMul f4 [4, 1856]
00000000: 191c 893c 61e8 21ba 10c4 7a3c 22fd 163c
00000010: 03e7 42bc 2178 673c 3b25 1b3d a012 103b
00000020: 90a6 843c 416f 47bc 4e0b 193d dc82 883c
00000030: a43c 20bc 87d2 183c 41e6 803c 7e9c 6cbb
00000040: 01fe 7c39 66f5 59bc 40e4 12bc dc3e 613c
00000050: a749 79bd 0620 95bc 7356 623c b396 9e3b
00000060: 130e 12bc 233b e43c 20b0 923c 4d3a 51bb
00000070: 7c41 0ebc 158b 073b 839b 00bd 5d34 62bb
00000080: 8ad6 083b d3ae 3f3c a20c 08bd 4977 203c
00000090: 1065 523c 2073 1dbc 10be 8abb 61d8 0a3c
000000a0: b696 4e3c 564d 13bc db5f 513c 8444 b03c
000000b0: 7fef 1cbc 6ff3 cebb c9a2 8d3c f8de 4abb
000000c0: f9fe 62bb f570 d93c b413 c73c 69e6 cabc
000000d0: f0b8 ca3c 1f27 0bba 473f 523a 98ab eb3b
000000e0: b96c a4bc dcf8 b1bc 4731 debb 645b e23b
000000f0: c260 143c 3f8b be3c db0e 9f3c 776b 973c
00000100: d1b3 57bc f7eb 133d 84a6 43bc 352e 46bd
00000110: aa4c 68bc c535 29bc 9cbd f23c c01e d13c
00000120: 0eec b0bc 5c04 043b e0de 1a3c f036 6a3c
00000130: c0dc 223b 2a74 3eba 25cf a43c 863b 4fbc
00000140: 6348 e93c 1664 51bb ceec f23b 3cd5 fcbb
00000150: 6bca 00bc eee0 853c b8b3 813c e3c0 f2bc
00000160: 70f5 4a3c 3e94 aa3b f35f 8b3c f395 d23c
00000170: 6e3e 9a39 b11f 3a3c 12e4 f7bc 191c a53b
00000180: e847 ac3c 38d1 b33b 643b 9b3b ab58 c33a
00000190: 9eaf bd3a 13af 303c 7ace 9dbb ab30 04bb
000001a0: 0525 823b ef0d b73b ece7 943c ff2a c6bb
000001b0: 1cd3 9a3b 930c 2c3c da34 aa3c bba1 c23c
000001c0: 525c 2dbc 6c32 58bc 6d4d be3c b342 b33b
000001d0: f4df 073c 5bd1 86bc 1e70 d9bb bf91 8abc
000001e0: 01bc 97bc 19d6 9dbc 9e14 903c 66cd 89bc
000001f0: 8565 61bc 58d6 b8bc 6852 413c 1e0c d1bc
00000200: 5224 82bb 5297 be39 888a 973c 50cb 183c
00000210: cf9c 253c d85e 8b3b 8041 92bc 247d 1cbc
00000220: 652e e63b 1e8f 873c 2717 ef3c 0efc e93b
00000230: 60ea 8cbc 74e6 453d 3ff5 f339 8dc4 1d3d
00000240: 2abf 1e3c c24e 893b 670c 9f3a b803 4c3b
00000250: 0b22 a03b db9b da3c 2704 a3bc 5e0a 0ebb
00000260: e3ca 0f3d 2d97 413a a97c ed3b e504 683b
00000270: 2b2b 523c df51 86bc acad 283a 8b61 d7bb
00000280: ca98 c1bc ff9a 3d3c 4e49 1c3b 7316 8d3c
00000290: 2907 093b 43b9 bf3b 1f2f 8b3a 186c e6bc
000002a0: 8cd3 113c 4837 5ab9 1386 423c 2aa0 583b
000002b0: 4bfa 42bc d1b5 a83b 9d69 843c 8214 b0bb
000002c0: 8c36 44bc 702e a83c c559 7ebc ff7f f6bb
000002d0: 57c7 48bb 4d17 ff3c d4d7 d33a 1e82 c3bb
000002e0: cac0 adbc 7213 243b db94 323c f0a2 7fbc
000002f0: 4a45 2f3c ea79 cd3c a6fd 253c c228 d2bb
00000300: 5274 5a3c 8f74 d9bc 42fb 17bb 9981 4dbc
00000310: 3a0c 363c bc29 afbc d571 143d eb00 813c
00000320: d67f a83a 1d19 c53b 8b44 f1bb 39c8 a23c
00000330: ffea af3c c189 2d3c a193 053d b3ea b93b
00000340: 6049 193c 2960 87bc 5554 923c 4635 f13b
00000350: 37c0 e3bc 2d0d 893c 39dd b23c d257 a0bc
00000360: 50c1 dbbc 2088 ecbb 8ce5 263b 605a 073c
00000370: aec5 8f3c e378 843c 335a 29bc 18b2 a8bc
00000380: 1c39 a53c ccda c83b 99d6 edbc 008f ad3b
00000390: 90a1 0fbb 3b1f 643c 2bae 663b b441 a5bc
000003a0: 8dd4 00bd 6daf ae3c a058 8ebb c0d8 003c
000003b0: 18f8 e8bc d966 943c 99ed 033c 56dd efbc
000003c0: e138 ad3c 575a cebb cfb2 9dbc 701c f93b
000003d0: d24b 183b 2b35 b8bc a24f a7bb 3729 0a3c
000003e0: 13e4 f03b a66c c6bc bb5c 133c d919 a53c
000003f0: d3d4 04bd 247f 23bd 0edd 5cbb 11b6 783a
0.01673703 -0.000617629 0.015305534 0.009215625 -0.011895898 0.014127762 0.037877303 0.0021983758
0.016192704 -0.012172521 0.037364297 0.016663961 -0.009780083 0.009327537 0.015734794 -0.0036104019
0.00024127217 -0.013303136 -0.008965552 0.013747897 -0.060861256 -0.018203747 0.013814556 0.004839742
-0.008914488 0.02786023 0.017906249 -0.003192562 -0.008682605 0.0020682265 -0.031398308 -0.0034516074
0.0020879828 0.011699396 -0.033215173 0.009794065 0.012841478 -0.0096099675 -0.004234083 0.00847444
0.0126091745 -0.008990606 0.012779201 0.021517046 -0.009578585 -0.0063156406 0.017289536 -0.0030955654
-0.0034636839 0.02654312 0.024301387 -0.024768071 0.024746388 -0.00053082587 0.00080202933 0.0071920864
-0.020071374 -0.02172511 -0.0067807767 0.0069078673 0.009056272 0.023259757 0.019416263 0.01848386
-0.01316543 0.036113705 -0.011941556 -0.04838391 -0.014178434 -0.010327761 0.029631428 0.025527358
-0.021596935 0.00201442 0.009452552 0.014295325 0.0024850816 -0.00072652346 0.020118305 -0.012648469
0.0284769 -0.0031950525 0.007413483 -0.007715849 -0.00786076 0.016342606 0.015832767 -0.029632991
0.012387618 0.00520566 0.017013526 0.025706267 0.00029419683 0.011360095 -0.03026012 0.00503875
0.021030381 0.0054875873 0.0047373045 0.0014903744 0.0014471894 0.010783928 -0.0048158737 -0.002017061
0.003971698 0.005586378 0.018176995 -0.006047606 0.004724873 0.010501045 0.020777155 0.02375876
-0.010581093 -0.013195615 0.023230279 0.0054705977 0.008293141 -0.01645725 -0.00663568 -0.0169152
-0.018522264 -0.019267129 0.017587956 -0.016821574 -0.013757114 -0.022563145 0.011799432 -0.025518473
-0.003971615 0.00036352366 0.018498674 0.009325817 0.010108187 0.0042532496 -0.017853498 -0.00955132
0.0070245736 0.016547736 0.029185845 0.007140643 -0.017201602 0.04831548 0.00046531294 0.038517524
0.009689132 0.004190297 0.0012134433 0.0031130146 0.0048868707 0.026685646 -0.01989944 -0.002167366
0.035105597 0.00073848927 0.0072475267 0.0035403308 0.012827675 -0.016396461 0.00064345705 -0.0065729073
-0.023632426 0.0115725985 0.0023847404 0.017222619 0.0020908809 0.0058509423 0.0010618902 -0.028127715
0.008900534 -0.00020810694 0.011872786 0.003305445 -0.011900495 0.0051486273 0.016163642 -0.0053735385
-0.011975896 0.020529956 -0.015524332 -0.0075225825 -0.0030636394 0.03113904 0.0016162344 -0.005966439
-0.021210093 0.0025036004 0.010899748 -0.015602812 0.010697672 0.025082547 0.010131275 -0.00641355
0.013333397 -0.026544837 -0.0023190533 -0.0125431055 0.0111113135 -0.021382205 0.03624137 0.015747508
0.0012855481 0.0060149566 -0.0073629073 0.019870864 0.02147436 0.010591925 0.032611493 0.0056737303
0.009355873 -0.016525345 0.017862478 0.007361087 -0.027801616 0.016729916 0.021834003 -0.019573126
-0.026825577 -0.007218376 0.002546641 0.008261293 0.017550316 0.016170925 -0.010336447 -0.020592734
0.020168833 0.0061295982 -0.029032992 0.005296588 -0.0021916367 0.013923462 0.0035199027 -0.020172931
-0.031452704 0.021323884 -0.004344061 0.007864177 -0.028438613 0.018115448 0.008052253 -0.029280346
0.021145286 -0.0062973904 -0.019250302 0.007602267 0.0023238552 -0.02248629 -0.0051059285 0.008432678
0.0073514073 -0.02422173 0.008994277 0.020153927 -0.032429527 -0.039916173 -0.0033701095 0.0009487579

sequential/conv1d/Conv1D f4 [64, 1, 100, 1]
00000000: e835 5bbb 7ab4 ae3a 6e89 cdba a2eb e3b9
00000010: 39b5 363a 8c29 cb39 d4a4 16bb 940b caba
00000020: a7cd 6aba 9856 a5ba b80e 72bb df4c cf38
00000030: b578 9dba ab9e 9b3a 7867 feba aef3 b7ba
00000040: fe17 06bb 3205 e0ba c510 0ebb 33e5 34bb
00000050: 76a9 653a a998 d8ba 74e4 ff38 0297 ec39
00000060: bd70 8c3a 0d2b 0239 6967 dbba 2719 ba3a
00000070: 4936 bcb9 dfee 013b c2dd 76bb cafd e93a
00000080: 668f 3ebb 097b 9d3a 6f44 75bb 2811 a23a
00000090: 8788 31ba 1f26 6f3a e498 e1ba ef21 6d3a
000000a0: c947 c83a 4822 9c3a dcac 243a 9d40 cd3a
000000b0: 997e 553a fb17 0f3a 6026 c9ba 4ccb 773b
000000c0: 9091 c4b9 a266 1e3b 393a 0dbb d3ba b33b
000000d0: bb07 caba 3b71 bf3a efe8 aaba 856b 0e3a
000000e0: ca93 e9ba ff16 13bb be8a 9f3a f0aa 02bb
000000f0: 4440 1b39 2714 4cbb f8fa 81b8 58c5 1bbb
00000100: 0133 e3ba 9dfb 9d39 c822 1f39 658e d53a
00000110: 33cb 6aba 9e34 1b3b 5607 97ba 328e 69ba
00000120: c81a 40bb 1fde 4cbb ceca e739 4d5f 43ba
00000130: 6a39 243b 1d29 0cbb d943 863b e834 66ba
00000140: 8731 613b 0428 c7b9 bd31 6d3b b85f c3ba
00000150: 2dac ea39 47ce 10b9 a66c b63a d77b f63a
00000160: fbcc 45b9 1f74 983a 5016 8a3a e7e9 7cba
00000170: 9f95 113a 896c 63bb 155f df3a 0102 69bb
00000180: 7afa 033a 6c55 a9bb 2581 1b3b 55b2 eeba
00000190: 9d8e c7b9 13ff d8ba f6e3 dd3a 2c08 e7ba
000001a0: a22a 593b 90c9 ad3a d323 a4ba 0fb1 59ba
000001b0: 087f b0b9 c884 413b 8a95 20bb 7a89 bb39
000001c0: 0a75 76bb b3a8 d3bb 1211 08bb 34ed acbb
000001d0: 22e2 2cbb 211a 9239 8845 1abb 1842 60bb
000001e0: a391 80ba e6c9 9ab9 ce33 ffba 1437 1f3b
000001f0: 82a6 40ba 18e0 7d3a 4622 e73a 12ee 03bb
00000200: deed 383b 8b96 513b af96 94ba fa71 1bb9
00000210: c06f 1cbb 3476 38b9 4512 4fbb ea2a f838
00000220: 9ed3 43bb 5c94 27bb b817 cf39 6c5b 04bb
00000230: f49a 2739 0e42 9aba 32f2 1abb c68d 913a
00000240: ce54 d9ba 83a5 b4ba 20c8 48bb df5b ac3a
00000250: f71d 63bb ed4b 943a f569 0a3b 5c9a 0bbb
00000260: 578a 0a3a 7151 1abb 5d86 87b9 f807 543b
00000270: 9a23 523a 273a f33a 0ead 0ebb a361 8d3b
00000280: 72c9 33ba ed2d 4b3a 95d8 ef3b 1c96 903a
00000290: 0caa 723b 7b95 5f3b f660 543b bfae 93ba
000002a0: c111 683b 9361 9f3b cd8f 15bb 26a1 a43b
000002b0: a748 ebba 3b40 1d3b dcba c63a 911c d6ba
000002c0: 2503 c23a ae7e 8cba 7a74 5cba 9b44 993a
000002d0: 2efb 13bb 753a a73a a0ec 8aba 4983 073b
000002e0: 771e 24bb 09ef a0b8 d166 27ba 5025 9abb
000002f0: 567f 4a3b bb11 673a 21f4 9dbb 7406 8f3a
00000300: a848 cbb9 a11f ddba 46a8 29bb 8c90 d539
00000310: 2704 70bb 38e4 cbba 697d 4d3b ca7e 1cbb
00000320: df58 2dba f775 733b 59a3 32bb 6a6a 993b
00000330: 80e2 52bb cd99 9d3b c4d5 82ba 362d 8c3b
00000340: 76a5 23bb 02c3 313b 99ea 943a dda0 0b3b
00000350: 48a7 13bb dc08 073a e508 7cba 544d 64b9
00000360: 0ebe 0ebb d2af e839 35da a439 d8c9 ad3a
00000370: a5bd 1abb 4438 f9b9 bef8 0cbb 5b63 84b9
00000380: 8ef8 07bb 18d8 8bba 8473 cab9 acae 123a
00000390: e721 3dba 2b51 d3b9 eaa6 f938 cd4b fa39
000003a0: 4e9c efb9 de74 2bba 6ccf 19ba 4731 563a
000003b0: 6c6b 6cba c232 4c3a f878 9f37 f54f 523b
000003c0: f1fd 5d3a 0c13 223b a3d8 a9ba faf5 113b
000003d0: 97f7 17ba 909e cc3a 6f7b 1ebb 6c1f 22bb
000003e0: 7a94 8fba 554c 1cbb 933d 13bb 42c6 22bb
000003f0: 74c8 33ba 0176 e2ba 055e c939 875f 6fba
-0.0033448879 0.0013328933 -0.0015681216 -0.00043472374 0.00069697533 0.00038750132 -0.0022986429 -0.0015414828
-0.0008957036 -0.0012614308 -0.0036935043 9.8848475e-05 -0.0012014123 0.0011872848 -0.0019409498 -0.0014034414
-0.0020461078 -0.0017091392 -0.0021677476 -0.0027602434 0.00087609084 -0.0016524988 0.000122019 0.00045125937
0.0010714751 0.00012413804 -0.0016739193 0.001419817 -0.000358986 0.0019826216 -0.00376688 0.0017852124
-0.0029077171 0.0012014817 -0.0037424823 0.0012364732 -0.00067723583 0.0009122807 -0.0017211703 0.0009045889
0.0015280183 0.0011912072 0.00062818616 0.0015659515 0.00081441697 0.00054585905 -0.001534652 0.0037810383
-0.00037492486 0.002417006 -0.0021549596 0.0054849177 -0.0015413681 0.0014605889 -0.001303939 0.0005432892
-0.0017820534 -0.0022444127 0.0012172086 -0.0019938312 0.00014805893 -0.0031139941 -6.197946e-05 -0.002376875
-0.0017333926 0.0003013284 0.00015176379 0.0016293047 -0.00089566706 0.0023682485 -0.0011522572 -0.00089094334
-0.0029312838 -0.0031260324 0.00044210855 -0.00074528606 0.0025058636 -0.002138681 0.0040974435 -0.00087816874
0.0034361796 -0.00037986052 0.0036192976 -0.0014905846 0.0004476024 -0.00013809754 0.0013917878 0.0018805218
-0.00018863745 0.0011631286 0.0010535214 -0.0009647891 0.00055536063 -0.0034702143 0.0017041886 -0.0035554173
0.00050345773 -0.005167654 0.00237281 -0.0018211106 -0.00038062493 -0.001655551 0.00169289 -0.0017626337
0.0033136983 0.0013258923 -0.0012522883 -0.0008304277 -0.00033663982 0.0029528607 -0.0024503195 0.00035769847
-0.0037606382 -0.0064593195 -0.0020762128 -0.0052773003 -0.0026379903 0.00027866758 -0.002353998 -0.0034219082
-0.0009809028 -0.00029523595 -0.0019470395 0.0024294304 -0.00073490303 0.00096845767 0.0017634116 -0.0020130915
0.0028217952 0.00319806 -0.0011336411 -0.00014824411 -0.002387032 -0.00017591642 -0.0031596583 0.00011833555
-0.0029880772 -0.0025570607 0.0003949979 -0.0020196093 0.00015984086 -0.0011768953 -0.0023642895 0.0011104874
-0.001658106 -0.0013782236 -0.0030636862 0.0013149938 -0.0034655312 0.0011314132 0.0021120284 -0.0021301722
0.00052848965 -0.0023547078 -0.00025849315 0.0032353383 0.00080161693 0.001855676 -0.002177063 0.0043146177
-0.0006858326 0.0007750679 0.0073195198 0.0011031064 0.0037027625 0.0034116197 0.0032406426 -0.0011267288
0.0035410973 0.0048639267 -0.0022821308 0.005024093 -0.0017950729 0.0023994583 0.001516189 -0.0016335418
0.0014801963 -0.0010718906 -0.00084096903 0.001169342 -0.0022580135 0.001275851 -0.0010599084 0.0020677617
-0.0025042573 -7.673918e-05 -0.0006385865 -0.004704155 0.0030898652 0.0008814593 -0.004820362 0.0010911957
-0.0003877331 -0.0016870388 -0.0025887652 0.00040734222 -0.0036623569 -0.0015555685 0.0031355268 -0.0023879283
-0.0006612669 0.003714917 -0.0027258007 0.004681875 -0.0032178462 0.0048095942 -0.000998192 0.0042778505
-0.0024970449 0.002712429 0.001136142 0.0021305599 -0.0022530127 0.00051511615 -0.00096143625 -0.00021772581
-0.0021780762 0.00044381485 0.00031443094 0.0013259007 -0.0023611572 -0.00047534902 -0.0021510567 -0.00025251028
-0.0020747515 -0.0010669259 -0.00038614508 0.0005595486 -0.00072148297 -0.0004030553 0.000119043354 0.00047740192
-0.00045702088 -0.0006540547 -0.0005867395 0.0008170795 -0.00090186927 0.0007789546 1.9010608e-05 0.0032091115
0.0008468321 0.002473059 -0.001295824 0.0022271858 -0.00057970866 0.001561122 -0.002418246 -0.0024737967
-0.0010954284 -0.0023849208 -0.002246712 -0.002483741 -0.0006858178 -0.00172776 0.00038407758 -0.0009131361
